PyTorch_Tutorial/Feedforward_Neural_Network/feedforward_neural_network_pytorch_relu3_mnist.pkl (torch, 401647 bytes, 8 tensors)

fc1.weight f4 [100, 784]
0	0xbcda0850	-0.026615292
1	0x3cb35faa	0.021896202
2	0x3cc69cf8	0.02424477
3	0xbc059c92	-0.008155005
4	0x3cdc7c8a	0.026914854
5	0x3cfb4b62	0.030675594
6	0x3bd1d870	0.006403975
7	0x3c96f026	0.018425059
8	0x3c0a8b60	0.008456081
9	0x3d1149c1	0.035470728
10	0xbd044584	-0.032292858
11	0xbcc272c0	-0.023736358
12	0x3c550039	0.013000541
13	0xbc75158b	-0.0149587495
14	0xbca74493	-0.02041844
15	0xbcec0b10	-0.028813869
16	0xbc569e0a	-0.013099203
17	0x3d112aa5	0.03544106
18	0xbca33f53	-0.019927656
19	0xbb9ddc5c	-0.0048175287
20	0xbcb45b9c	-0.022016339
21	0x3c9775c8	0.01848878
22	0x3d0542b7	0.032534327
23	0xba70da80	-0.00091878325
24	0x3ccab810	0.024745971
25	0x3cdc48e2	0.026890222
26	0xbbcf2b80	-0.0063223243
27	0xbc4d854a	-0.012543986
28	0xbcddd5e5	-0.027079532
29	0xbd084c4b	-0.033275884
30	0x3c58ed98	0.0132402405
31	0x3c7455b8	0.014913015
32	0xbca39204	-0.019967087
33	0xbcc58698	-0.02411203
34	0xbbbbbf94	-0.005729625
35	0x3c8391fc	0.016060822
36	0xbb4de2ea	-0.003141577
37	0xbc34ae46	-0.011027878
38	0xbc1223fc	-0.008919712
39	0xbbd9d7ad	-0.006648025
40	0x3cab6924	0.020924158
41	0xbc95e223	-0.018296307
42	0x3d0565da	0.032567836
43	0xbcb51228	-0.022103384
44	0xb9d0885b	-0.00039774444
45	0xb8f5c96e	-0.000117200296
46	0xbb78d83b	-0.003797068
47	0x3c8143cb	0.015779397
48	0xbc5f74ed	-0.013638717
49	0x3ca212f5	0.01978443
50	0xbd0e7692	-0.034781046
51	0xbcff8c91	-0.031194957
52	0x3c76ba38	0.015059046
53	0xbcac9b88	-0.021070257
54	0x3caf04c2	0.021364573
55	0x3d04bc7d	0.03240632
56	0x3c156bf4	0.009119976
57	0x3d06dd17	0.03292569
58	0x3bfb3f62	0.007667468
59	0x3d020af8	0.031748742
60	0x3c7be9a0	0.015375525
61	0xba4fe82e	-0.0007931021
62	0xbc1c163f	-0.009526788
63	0xbc1f8b33	-0.0097377775
64	0xbd03e9bf	-0.03220534
65	0x3d09b03c	0.033615336
66	0x3c2a5081	0.01039517
67	0x3d127970	0.035760343
68	0x3d3567f9	0.04428861
69	0x3b5661ee	0.003271218
70	0x3d3ecf55	0.046584446
71	0xba616f1e	-0.00085996266
72	0xbcba6232	-0.022751901
73	0x3ba06c4d	0.004895723
74	0x3cdd7cbd	0.027037019
75	0x3c297a0c	0.01034404
76	0x3c8feb75	0.01756833
77	0x3bde9b72	0.006793433
78	0xbcb99a73	-0.022656655
79	0x3c905f47	0.017623557
80	0xbcb89760	-0.022533119
81	0xbc865155	-0.016396204
82	0x3d0a230f	0.03372484
83	0x3be4c2a8	0.0069812126
84	0xbcd469c3	-0.025929337
85	0x3cab582e	0.02091607
86	0xbcee8075	-0.029113987
87	0xbccaaaea	-0.024739701
88	0x3d0ee16d	0.03488295
89	0xbc683ae1	-0.014174194
90	0x3d0ec1f1	0.034852926
91	0xbd039b7a	-0.032130696
92	0xbccd2689	-0.025042789
93	0xbd2f89e7	-0.042856123
94	0x3c972ac6	0.018453013
95	0xbb548c29	-0.0032432175
96	0xbc3cc843	-0.0115223555
97	0xbc35c453	-0.011094171
98	0xbc848775	-0.016177872
99	0x3cb13a71	0.021634312
100	0x3ce9588f	0.02848461
101	0x3cf12396	0.029435914
102	0x3c1526bb	0.009103472
103	0x3bff1ea0	0.007785633
104	0x3c2fe48a	0.01073564
105	0x3d761c76	0.060085736
106	0x3d0ca73d	0.03433918
107	0x3d429434	0.04750462
108	0x3cceb718	0.02523379
109	0x3c639d08	0.01389242
110	0xbc2c6313	-0.010521668
111	0xbc81e563	-0.01585645
112	0xbcaf8393	-0.021425044
113	0x3c8bf188	0.017082945
114	0xbd082032	-0.03323383
115	0x3bdc08c2	0.006714911
116	0x3b6f2851	0.0036492536
117	0x3c0c14bc	0.008549865
118	0xbd0ce76d	-0.034400392
119	0x3b336897	0.0027375573
120	0xbd83c80f	-0.064346425
121	0xbca08c8d	-0.01959827
122	0xbd46a94b	-0.048501294
123	0xbd603c3f	-0.054744955
124	0xbd762799	-0.060096357
125	0xbd44d6b7	-0.04805633
126	0xbd03dbcc	-0.032192037
127	0xbca64ff4	-0.020301796
128	0xbc10a93a	-0.008829409
129	0x3c3043ae	0.010758324
130	0x3c568993	0.013094324
131	0x3d721f0d	0.059111644
132	0x3d15201d	0.03640758
133	0x3d164603	0.036687862
134	0x3c6436b5	0.013929059
135	0x3d30b9c7	0.04314592
136	0xbd1a0639	-0.03760359
137	0xbcacbb70	-0.02108547
138	0xbcf2b96c	-0.029629432
139	0x3cf138ed	0.02944609
140	0x3cab8972	0.020939562
141	0xba162000	-0.0005726814
142	0x3bd7b70e	0.006583101
143	0xbb2da38c	-0.0026495187
144	0x3c3bce35	0.011462738
145	0xbd091a9f	-0.033472653
146	0xbd1aaf62	-0.037764914
147	0xbcfb8916	-0.030705016
148	0xbc986dd3	-0.018607056
149	0xbcbee0c0	-0.023300529
150	0xbda7f160	-0.082003355
151	0xbd60f06e	-0.05491679
152	0x3c89afbe	0.016807433
153	0x3b9fc76a	0.004876067
154	0x3d70b74f	0.058768567
155	0x3b034b5b	0.002003393
156	0x3c3dd63f	0.011586725
157	0x3ca71590	0.020396024
158	0x3d67fbab	0.056636494
159	0x3da76584	0.081736594
160	0x3d39ca7d	0.045359123
161	0x3bcff229	0.0063460064
162	0xbc9bf9fe	-0.019040104
163	0x3b0e9f4f	0.0021762436
164	0xba04b4bf	-0.00050623337
165	0xbb6a3889	-0.0035739264
166	0x3cb29324	0.021798678
167	0x3ca297ba	0.01984774
168	0x3c647b40	0.013945401
169	0x3c39cbbe	0.01134008
170	0x3c73d045	0.014881198
171	0x3c46cb24	0.012133393
172	0xbc75a0ac	-0.01499192
173	0xbc241446	-0.010014599
174	0xbd453acb	-0.048151772
175	0xbd3976ae	-0.045279197
176	0xbdb1a794	-0.08674541
177	0xbdd027f5	-0.10163871
178	0xbd7b0a20	-0.061288953
179	0x3bd6dddb	0.006557209
180	0xbc04ab11	-0.008097426
181	0xbc8841a2	-0.016632859
182	0x3ca4eb19	0.020131635
183	0x3af29f4a	0.0018510607
184	0xbc2dea34	-0.01061492
185	0x3d49e650	0.04929191
186	0x3d00ded0	0.03146249
187	0x3b8efc00	0.004363537
188	0xbc89728c	-0.016778253
189	0x3be27608	0.006911043
190	0x3d06e26e	0.032930784
191	0x3ccf2ef6	0.025290947
192	0xbcd20909	-0.025639074
193	0xbc9c0621	-0.019045891
194	0xbc40a77f	-0.011758684
195	0xbd0dc9b3	-0.034616183
196	0xbcba1e36	-0.022719484
197	0xbd08c5f8	-0.033391923
198	0xbc875109	-0.016518133
199	0x3c53fbd7	0.012938461
200	0x3b935ad8	0.0044969134
201	0x3ca3a62f	0.019976703
202	0xbd62b719	-0.055350397
203	0xbd926ae9	-0.07149298
204	0xbda5d84a	-0.080978945
205	0xbd240436	-0.04004308
206	0xbd5d38f2	-0.054009385
207	0x3cd6032a	0.026124556
208	0xbbdd5871	-0.006754928
209	0x3bc3ab63	0.0059713586
210	0xbc8500e0	-0.016235769
211	0x3c68be5d	0.014205542
212	0x3c198ab7	0.009371451
213	0x3d3e9b1e	0.04653465
214	0xbd06a85b	-0.0328754
215	0xbb2835cc	-0.002566683
216	0x3c2f2488	0.010689862
217	0xbd2de940	-0.042458773
218	0x3ab020c1	0.0013437496
219	0xbd2f6bf1	-0.04282755
220	0x3be7ba99	0.0070718047
221	0xbd337a39	-0.043817732
222	0xbcc626ef	-0.024188487
223	0xbb796cb2	-0.0038059172
224	0x3c69f114	0.014278669
225	0x3d021e0b	0.031766932
226	0xbcb8f8a5	-0.0225795
227	0x3c07b10c	0.008281957
228	0xbc340625	-0.010987793
229	0xbcd7b199	-0.026329802
230	0xbd266bcc	-0.040630147
231	0xbd562328	-0.05227962
232	0xbdb994a8	-0.09061557
233	0xbd3f2b30	-0.046672046
234	0xbbca8dc1	-0.006181449
235	0x3cfd4344	0.030915864
236	0xbc3e5b80	-0.011618495
237	0x3c0675d8	0.008206807
238	0x3c783e44	0.015151564
239	0xbc01a31b	-0.0079124225
240	0xbd2a9ed2	-0.04165537
241	0xbd835c65	-0.06414107
242	0xbd3d3317	-0.0461913
243	0xbd80ecd8	-0.06295174
244	0xbd51fa39	-0.05126402
245	0xbb8f2623	-0.00436856
246	0xbd711db3	-0.058866214
247	0xbd4ec28f	-0.050478514
248	0x3906f6f8	0.00012871239
249	0xbd066902	-0.032814987
250	0x3cc824bb	0.024431577
251	0x3c959142	0.01825774
252	0xbba17ec6	-0.0049284426
253	0x3c3ac50c	0.011399519
254	0x3d069570	0.03285736
255	0xbcd35873	-0.025799012

fc1.bias f4 [100]
0	0x3d2d34a6	0.042286538
1	0x3db45220	0.088047266
2	0x3d759598	0.059957117
3	0xbd353e9e	-0.04424917
4	0x3cef6ec4	0.029227622
5	0x3d0caf2f	0.034346756
6	0xbdad9cf8	-0.08477205
7	0xbceb128a	-0.028695364
8	0x3c80a342	0.015702847
9	0xbcfe4283	-0.031037575
10	0xbb00c2a4	-0.0019647265
11	0xbc5bb227	-0.013409174
12	0x3d637c38	0.055538386
13	0xbb009c63	-0.0019624464
14	0xbc089e1e	-0.008338479
15	0x3d5d8062	0.054077514
16	0xbd61c262	-0.05511702
17	0x3d087aeb	0.03332035
18	0xbd98addb	-0.07455035
19	0xbc2ac9fd	-0.010424134
20	0x3e0538f0	0.13010001
21	0xbbcb2611	-0.006199606
22	0x3bb1f34e	0.0054306155
23	0x3cde2e5d	0.027121717
24	0x3ccd8cd8	0.025091574
25	0x3d28c544	0.041203752
26	0x3e08dc9d	0.13365407
27	0x3d818097	0.06323355
28	0x3b55890f	0.0032582914
29	0xbc605203	-0.013691428
30	0x3aeb8c2b	0.001797085
31	0xbce7971d	-0.028270299
32	0xbca761c5	-0.020432362
33	0x3d0c9762	0.034324057
34	0x3c2e77af	0.010648652
35	0x3b275270	0.0025531314
36	0xbbeaf75b	-0.0071706004
37	0x3d94eef6	0.07272141
38	0x3ceec71f	0.029147683
39	0xbbb40de9	-0.0054948223
40	0x3c21a45b	0.009865846
41	0x3cf003e0	0.029298723
42	0x3d10a40a	0.03531269
43	0x3b8ea475	0.004353101
44	0xbca17b0c	-0.019711994
45	0x3d41dd44	0.047330156
46	0xbcb2cb43	-0.021825438
47	0xba344924	-0.0006877354
48	0x3d8dc636	0.06922571
49	0x3d062d65	0.032758135
50	0x3d9032b4	0.07040921
51	0x3dc3af52	0.09554924
52	0x3daf122f	0.0854839
53	0x3d02f87e	0.031975262
54	0xbc00634c	-0.007836174
55	0x3da1f134	0.07907334
56	0x3de530e3	0.11190965
57	0x3e02deef	0.12780355
58	0xbd27e080	-0.040985584
59	0xbca263f4	-0.019823052
60	0x3b291ec6	0.0025805696
61	0x3cb48217	0.022034688
62	0xbd0bf492	-0.034168787
63	0x3d3868a4	0.045021668
64	0xbd0679c7	-0.03283098
65	0x3c1deece	0.009639455
66	0x3d20e872	0.039284177
67	0x3dcd2308	0.10016447
68	0xbc926705	-0.01787139
69	0xbd1814cf	-0.03712922
70	0x3d515641	0.05110765
71	0x3d9c9b51	0.07646812
72	0xbba0a421	-0.004902378
73	0x3d1463a4	0.036227837
74	0x3d00d629	0.03145424
75	0x3d8b83c3	0.06812241
76	0x3c9db63c	0.019251935
77	0x3d82745f	0.06369852
78	0x3d2ad30b	0.041705173
79	0x3c13feb1	0.009032891
80	0x3d174bb5	0.036937434
81	0x3c05900f	0.008152022
82	0x3c3e91c6	0.011631435
83	0xbcf78733	-0.030215835
84	0x3c53d710	0.012929693
85	0x3de81961	0.11332966
86	0xbc8a32e0	-0.016869962
87	0xbcfc6809	-0.030811327
88	0xbcea9aea	-0.028638322
89	0x3dca270a	0.09870727
90	0x3c0f4c18	0.0087461695
91	0xbb8c5f6a	-0.004283835
92	0x3d3cf535	0.046132285
93	0x3d523ad7	0.051325645
94	0x3c0b51d0	0.008503392
95	0xbbdacd66	-0.0066773174
96	0x3d2c13b3	0.042010974
97	0xbcbb8a05	-0.022892961
98	0x3d165767	0.036704447
99	0xbb86e45f	-0.0041165794

fc2.weight f4 [100, 100]
0	0x3cac48ac	0.021030746
1	0xbda3d6e3	-0.07999971
2	0xbd845e5d	-0.06463311
3	0xbdcf329c	-0.10117075
4	0x3d0933a2	0.033496507
5	0xbd4d408b	-0.05011038
6	0x3da0d924	0.07853916
7	0xbdc6919b	-0.09695741
8	0x3d87966b	0.06620487
9	0x3df51d61	0.11968494
10	0x3d360422	0.044437535
11	0x3de39c1a	0.111137584
12	0x3decb0ab	0.11557134
13	0xbc965d0d	-0.018354917
14	0xbdc9f369	-0.0986088
15	0xbcf21047	-0.029548777
16	0x3d8414fb	0.06449314
17	0xbcf17619	-0.029475259
18	0xbceac7b0	-0.028659672
19	0xbd978434	-0.073982626
20	0xbd587db9	-0.052854273
21	0x3d1f4d02	0.0388918
22	0xbdc14a66	-0.094380185
23	0x3d0750c2	0.033036
24	0xbe0d6d47	-0.13811217
25	0x3d94e95c	0.07271072
26	0x3dbd241a	0.092354015
27	0x3d43b869	0.04778329
28	0x3d12b4be	0.0358169
29	0x3d377ea4	0.04479851
30	0x3dc57d0c	0.096429914
31	0xbde851c9	-0.11343724
32	0x3c2f49b4	0.010698725
33	0x3c917959	0.017758058
34	0xbdc1febb	-0.09472414
35	0xbc799b59	-0.015234792
36	0xbd7c7972	-0.061639257
37	0xbd0259ff	-0.03182411
38	0xbba92d46	-0.0051628677
39	0xbd3d7ae3	-0.046259772
40	0x3d4e545c	0.05037342
41	0x3d82fd16	0.063959286
42	0x3d6e950f	0.058247622
43	0x3ddf8292	0.10913576
44	0x3da6f145	0.08151487
45	0x3d46e7bf	0.048560854
46	0x3cc9b39b	0.024621775
47	0x3d0dc827	0.03461471
48	0xbd2dafab	-0.04240386
49	0xbdab9739	-0.08378453
50	0x3d590c2f	0.052990135
51	0xbd2abc63	-0.041683566
52	0xbe132158	-0.14368188
53	0x3da1cf4d	0.079008676
54	0x3d789381	0.060687546
55	0xbe1bb575	-0.15205939
56	0x3cd11849	0.025524275
57	0xbcf0c24c	-0.029389523
58	0x3ddcbb6e	0.10777937
59	0xbddd3f6f	-0.108031146
60	0x3c32aab4	0.010904957
61	0xbdf99d81	-0.121882446
62	0x3d2bc0ee	0.04193204
63	0x3a09dd64	0.0005259125
64	0xbdfcffa4	-0.12353447
65	0x3d8227d9	0.063552566
66	0xbe0c83e6	-0.1372219
67	0x3df5a086	0.11993508
68	0x3d8ee28b	0.069768034
69	0x3c48406a	0.012222389
70	0xbd5ea4e8	-0.054356486
71	0x3dee71e9	0.116428204
72	0x3ba4b100	0.005025983
73	0x3ca3f369	0.020013528
74	0x3cb8ab9e	0.022542771
75	0x3d5b21f0	0.053499162
76	0x3b8ec931	0.00435748
77	0x3dd60f46	0.10452132
78	0xbd807fa6	-0.06274347
79	0xbdad74db	-0.08469554
80	0x3d7e0408	0.062015563
81	0xbd3fcc8d	-0.046825934
82	0x3d66a233	0.05630703
83	0xbdc3763b	-0.09544035
84	0xbe097134	-0.1342209
85	0xbbaacb33	-0.0052122115
86	0xbac03cbd	-0.0014666539
87	0x3d428294	0.04748781
88	0xbd6f6f35	-0.058455665
89	0x3dcec8e0	0.100969076
90	0x3db3b659	0.087750144
91	0xbd44bb55	-0.048030216
92	0xbd02d37c	-0.03193997
93	0x3cbbba84	0.022916086
94	0x3d70c360	0.058780074
95	0xbd7c71bb	-0.0616319
96	0x3ceaaa1a	0.028645564
97	0xbe124b1d	-0.14286466
98	0x3c7455dd	0.0149130495
99	0xbd0b91c3	-0.034074556
100	0x3d388c10	0.04505545
101	0x3cff3c6c	0.031156741
102	0xbdb4f4d9	-0.088357635
103	0xbaa229f3	-0.0012372121
104	0x3d5b91a3	0.053605687
105	0xbbf1aae5	-0.0073751085
106	0x3d19b69f	0.037527677
107	0xbd58b07f	-0.052902695
108	0xbd24b2a1	-0.040209416
109	0x3bf0d069	0.007349063
110	0xbc0fb62b	-0.00877146
111	0xbca17a02	-0.019711498
112	0xbd0807ea	-0.033210672
113	0xbd4605f4	-0.04834552
114	0xbd3ab357	-0.045581188
115	0x3ba2e15c	0.0049707126
116	0x3cb6d469	0.022318082
117	0x3c1ccef2	0.009570824
118	0xbd49c0d5	-0.049256165
119	0x3d9082b6	0.07056181
120	0x3c9e5810	0.0193291
121	0xbc8df5b1	-0.017329069
122	0xbd754459	-0.059879635
123	0x3b75f5fe	0.0037530656
124	0xbd709b8f	-0.058742102
125	0xbca76878	-0.020435557
126	0xbc5763c4	-0.013146345
127	0x3db70d44	0.08938077
128	0xbd9a4fe7	-0.075347714
129	0xbda4fd85	-0.080561675
130	0x3c6307a3	0.013856801
131	0xbd790059	-0.060791347
132	0xbc69c01d	-0.014266995
133	0xbd8807b1	-0.06642092
134	0xbd9356a5	-0.071942605
135	0x3cbcb468	0.023035243
136	0xbca2e998	-0.019886777
137	0xbd931b72	-0.07182969
138	0xbcd1c70d	-0.02560761
139	0x3c3e85f5	0.0116286175
140	0xbd892464	-0.06696394
141	0xbddfe022	-0.10931422
142	0x3debacbd	0.115075566
143	0x3d40532f	0.04695433
144	0xbc8c8001	-0.01715088
145	0xbcc3fafe	-0.023923393
146	0xbd4501c7	-0.048097398
147	0xbd934387	-0.07190614
148	0x3cf63e4a	0.030058999
149	0xbc929cc7	-0.017897023
150	0xbd79df42	-0.06100393
151	0xbd74a224	-0.05972494
152	0xbcee2de8	-0.029074624
153	0x3db6a145	0.089174785
154	0x3dd74816	0.10511796
155	0xbd18bdc0	-0.037290335
156	0xbc15ff4e	-0.009155108
157	0xbc49750f	-0.012295975
158	0x3c4ce99b	0.012506868
159	0xbd93ca14	-0.07216278
160	0x3df21965	0.1182125
161	0x3d426d3a	0.047467448
162	0xbd0c458c	-0.034246013
163	0x3d5fe92d	0.054665733
164	0x3cf985cc	0.030459307
165	0x3d8ea826	0.069656655
166	0x3c212081	0.00983441
167	0x3d8fcd12	0.07021536
168	0xbb909a2d	-0.0044129104
169	0xbd9b435f	-0.075812094
170	0xbcd262d5	-0.025681892
171	0xbd62db1b	-0.055384737
172	0x3ca0a01d	0.019607598
173	0xbdbe182f	-0.092819564
174	0xbd78dd94	-0.06075819
175	0xbd0f25ee	-0.034948282
176	0x3d2d6c30	0.042339504
177	0xbd1413a8	-0.03615156
178	0x3dbf9da1	0.09356237
179	0xbd12a29c	-0.035799608
180	0x3c3a2eed	0.011363727
181	0xbc9f49d4	-0.019444384
182	0x3c1a7787	0.009427912
183	0xbd5271a8	-0.051377922
184	0xbd485e6b	-0.04891817
185	0xbd50e928	-0.051003605
186	0x3d00e23e	0.03146576
187	0xbd57bb9c	-0.052669153
188	0xbd09a917	-0.033608522
189	0x3de1cf21	0.11025835
190	0x3da9d24a	0.082920626
191	0x3cb4a2ff	0.022050379
192	0xbd99e523	-0.075144075
193	0xbdab5e86	-0.08367638
194	0x3dccfa79	0.10008711
195	0xbc63ad80	-0.013896346
196	0x3d3d208a	0.04617361
197	0xbdca2737	-0.09870761
198	0xbd182309	-0.037142787
199	0xbd692c79	-0.056927178
200	0xbe09fa34	-0.13474351
201	0xbb34de67	-0.0027598382
202	0x3e25f020	0.16204882
203	0xbdc260c0	-0.0949111
204	0x3dc6b4cf	0.09702455
205	0x3d2234a3	0.03960098
206	0x3e686fb1	0.22698857
207	0x3bc34ab0	0.005959831
208	0xbc8a42b9	-0.016877519
209	0xbda4a391	-0.0803901
210	0x3cc44723	0.023959702
211	0xbca81a48	-0.020520344
212	0xbd49d3f3	-0.049274396
213	0x3e26ea03	0.16300206
214	0xbdd31c7c	-0.10308167
215	0xbdf1f239	-0.118137784
216	0xbd3590d9	-0.04432759
217	0xbd6fc6d6	-0.058539234
218	0x3d391765	0.045188326
219	0xbc0494d9	-0.008092129
220	0x3e06c034	0.13159257
221	0xbd4712df	-0.04860198
222	0x3c807a44	0.0156833
223	0x3d93a469	0.07209093
224	0x3ce266c4	0.027636893
225	0x3d1caba6	0.038249634
226	0xbe16b020	-0.14715624
227	0x3dad1f77	0.08453267
228	0xbdf2363b	-0.1182675
229	0x3c90e81d	0.017688805
230	0x3db78bca	0.089622095
231	0x3da91ebc	0.08257815
232	0x3e705913	0.23471479
233	0x3d91485f	0.07093882
234	0x3e0a6fc0	0.13519192
235	0x3d87225b	0.0659835
236	0xbdf3b1d8	-0.118991554
237	0x3d932173	0.07184114
238	0x3e3393ff	0.17536925
239	0x3d9a5689	0.075360365
240	0x3ae6a204	0.0017595892
241	0x3e0a3e1a	0.13500252
242	0x3d8c077c	0.06837365
243	0xbd98b36f	-0.07456099
244	0x3d92765b	0.07151481
245	0x3e30a086	0.17248735
246	0xbd46b722	-0.048514493
247	0xbe02b0dd	-0.1276278
248	0x3dd278b3	0.10276928
249	0x3db55f72	0.088560954
250	0xbe17e5ac	-0.14833707
251	0x3cd372e9	0.02581163
252	0x3dd8e249	0.105900355
253	0x3d7d24d7	0.06180271
254	0xbdda83cb	-0.10669669
255	0x3db5b7ff	0.08872985

fc2.bias f4 [100]
0	0x3d8170eb	0.063203655
1	0x3be22e80	0.006902516
2	0xbda076e4	-0.078351766
3	0x3dbceeed	0.09225259
4	0xba96a2a4	-0.0011492562
5	0x3d90cb38	0.07070011
6	0xbd9bf56d	-0.07615171
7	0x3deae0e8	0.11468679
8	0xbd24b3eb	-0.040210646
9	0xbd6b182d	-0.057396103
10	0xbd98d829	-0.07463104
11	0x3c0f174a	0.00873358
12	0xbd3a2fd4	-0.04545577
13	0x3c13e299	0.009026193
14	0xbd2501e1	-0.040284995
15	0x3e010e57	0.12603126
16	0x3bdd69ed	0.006757012
17	0xbd0f4844	-0.034981027
18	0x3e0b61db	0.13611548
19	0xbdcff048	-0.10153252
20	0xbdbcf561	-0.0922649
21	0x3d82907c	0.063752145
22	0x3d0568e8	0.03257075
23	0xbd48451e	-0.04889404
24	0x3d833ac8	0.06407696
25	0xbdd416a9	-0.103558846
26	0xbd52ac18	-0.051433653
27	0x3d4815e1	0.04884899
28	0x3e632153	0.22180681
29	0x3d42780b	0.047477763
30	0xbc2e68e0	-0.010645121
31	0xbd5126de	-0.051062457
32	0xbc569cc1	-0.0130988965
33	0x3db693c7	0.08914905
34	0x3dd2da44	0.10295537
35	0xbd539bb4	-0.051662162
36	0xbd9946bf	-0.07484197
37	0xbdcac2a9	-0.0990041
38	0x3deb1ffb	0.11480709
39	0x3d8648bc	0.06556842
40	0x3d835005	0.06411747
41	0xbd7298be	-0.059227698
42	0xbd4b6038	-0.04965231
43	0x3d5df1cb	0.05418567
44	0xbcba0f2c	-0.022712313
45	0xb9d9a33a	-0.0004151108
46	0xbd0ffe27	-0.035154488
47	0x3da0b407	0.078468375
48	0xbbfb2e5c	-0.0076654386
49	0xb9c64126	-0.00037814042
50	0xbd9dda9d	-0.07707713
51	0xbd811652	-0.063030854
52	0x3d149105	0.036271114
53	0xbd1a33df	-0.037647124
54	0x3cea0d53	0.028570807
55	0xbc470714	-0.012147684
56	0x3d420e0a	0.04737667
57	0x3d8dbe0e	0.06921016
58	0x3c0411a8	0.00806085
59	0x3da8f9f0	0.08250797
60	0x3d9e159c	0.077189654
61	0xbd2777ee	-0.04088586
62	0x3e2deadb	0.16984122
63	0x3d575529	0.05257145
64	0x3d02957a	0.031880833
65	0xbd0f6a34	-0.035013393
66	0xbd3506dc	-0.044195995
67	0x3dec80b7	0.11547988
68	0x3d68b54a	0.056813516
69	0x3db5618d	0.08856497
70	0x3d5e0e06	0.054212593
71	0x3e39e3ec	0.18153352
72	0x3dd9fcc9	0.10643918
73	0xb9a5e6ee	-0.00031643308
74	0x3d13d068	0.036087424
75	0x3d83754c	0.06418857
76	0x3dee9763	0.116499685
77	0x3dc04f7f	0.09390163
78	0x3cec0ef2	0.02881572
79	0x3db4dc8d	0.08831129
80	0xbcb5bfb2	-0.022186134
81	0x3ce24617	0.027621312
82	0x3dcf24f6	0.101144716
83	0x3dd4257e	0.103587136
84	0x3dabd0c8	0.08389431
85	0xbd680efb	-0.05665491
86	0x3d282aab	0.041056316
87	0x3e3186d5	0.1733659
88	0x3c1c0c2e	0.009524388
89	0x3c79b9d2	0.015242057
90	0xba095e03	-0.0005240144
91	0xbda50eac	-0.08059439
92	0x3e26fd83	0.16307645
93	0x3e48425a	0.19556561
94	0x3deaf53f	0.11472558
95	0xbd7086dd	-0.058722366
96	0x3dad8848	0.08473259
97	0x3e45d604	0.19319922
98	0x3d19f486	0.03758671
99	0x3ad96855	0.001658688

fc3.weight f4 [100, 100]
0	0x3dacd30c	0.084386915
1	0x3aa9bf26	0.0012950643
2	0x3d0f04ef	0.034916814
3	0xbdcd4e61	-0.10024715
4	0xbd6b83c9	-0.057498727
5	0xbe127655	-0.14302953
6	0xbd005808	-0.031333953
7	0x3dbe02f3	0.09277906
8	0x3cce329f	0.025170622
9	0x3c7d76ba	0.015470201
10	0x3cd3e3c5	0.025865445
11	0x3d44aae8	0.04801455
12	0x3cd6a871	0.026203366
13	0x3d1ce2ea	0.03830234
14	0x3d8f5fd8	0.070007026
15	0x3e004647	0.12526809
16	0x3cdcf6f3	0.026973223
17	0x3dad5412	0.08463301
18	0x3d76b279	0.0602288
19	0xbd307501	-0.043080334
20	0xbd9d1976	-0.07670872
21	0xbc511297	-0.01276078
22	0x3df457ec	0.11930832
23	0x3d493ec6	0.04913213
24	0x3d0496ed	0.032370497
25	0xbdb77026	-0.089569375
26	0xbc85f4eb	-0.016352138
27	0xbdb1a8b8	-0.08674759
28	0xbce0d018	-0.027442977
29	0x3d527b11	0.051386897
30	0x3d70acb7	0.058758464
31	0x3d075a8f	0.033045348
32	0xbd4e0c4c	-0.050304696
33	0xbd59b2d1	-0.05314905
34	0x3e06c1a9	0.13159813
35	0xbdb3d3fe	-0.08780669
36	0x3d1be6a2	0.038061745
37	0x3d261f0d	0.040556956
38	0x3d90f216	0.07077424
39	0x3cf907a8	0.030399159
40	0xbda29783	-0.07939055
41	0x3da57317	0.08078592
42	0xbd45c2eb	-0.04828159
43	0x3e0cf44a	0.13765064
44	0xbb3d8a1e	-0.0028921436
45	0x3dc3c45a	0.095589355
46	0xbd7dae9d	-0.061934102
47	0xbdcc00c4	-0.099610835
48	0xbd2631af	-0.040574726
49	0x3d2d841a	0.04236231
50	0x3d0e8bab	0.034801167
51	0x3c0e9416	0.008702299
52	0x3dfd2e53	0.12362351
53	0xbdfef118	-0.12448329
54	0x3d55d450	0.05220443
55	0x3dc4106e	0.09573446
56	0xbcd9f097	-0.02660398
57	0xbd9bcec7	-0.07607799
58	0x3ccad85d	0.024761373
59	0xbd95a2d9	-0.07306451
60	0xbd33e424	-0.043918744
61	0x3c602b7c	0.0136822425
62	0x3d19bca0	0.037533402
63	0xbc8eb4b6	-0.017420154
64	0x3d000cd4	0.031262234
65	0xbcd56870	-0.026050776
66	0x3d09300f	0.033493098
67	0xbdc32ebc	-0.09530398
68	0xbc345750	-0.011007145
69	0x3e0263c1	0.12733366
70	0xbd58952a	-0.05287663
71	0x3c548c1a	0.012972856
72	0x3c9e6b0c	0.019338153
73	0x3d9f1f9d	0.07769702
74	0x3d8466b6	0.06464903
75	0xbd193310	-0.037402213
76	0x3daa3596	0.08311002
77	0x3da2b51b	0.079446994
78	0x3d2b3cf9	0.041806195
79	0xbd3a9995	-0.045556623
80	0x3e18a090	0.14905
81	0x3e047cea	0.12938276
82	0xbd936a81	-0.071980484
83	0x3d302fe0	0.043014407
84	0x3cfc89a7	0.030827357
85	0xbdab7124	-0.08371189
86	0xbdf3114b	-0.11868533
87	0x3e1c59e7	0.1526867
88	0xbd287a9d	-0.041132558
89	0x3dd6e733	0.104933165
90	0xbda7ab2b	-0.081869446
91	0x3dc80b89	0.09767825
92	0xbc8d2279	-0.017228352
93	0xbe411cfe	-0.18858716
94	0xbd072003	-0.032989513
95	0xbd525350	-0.051348984
96	0xbdc4c743	-0.09608319
97	0x3e1d019e	0.15332648
98	0xbcd0af29	-0.025474148
99	0x3dc584b6	0.09644453
100	0x3dadb619	0.08481998
101	0x3d9b19ee	0.07573305
102	0x3b8f7054	0.004377404
103	0xbbc9c3a4	-0.0061573554
104	0x3c9295a9	0.01789363
105	0xbd1b00d6	-0.037842594
106	0x3ce071a8	0.027397946
107	0x3be645c2	0.0070273587
108	0xbcd5b1e7	-0.026085807
109	0xbda41f8f	-0.08013832
110	0x3e68c208	0.22730267
111	0x3c271554	0.010197956
112	0x3dec8364	0.11548498
113	0x3d862e05	0.06551746
114	0xbc876991	-0.01652983
115	0x3d7364cd	0.059422303
116	0x3e083727	0.13302289
117	0xbd48b5a3	-0.049001347
118	0x3d4d0c32	0.05006046
119	0x3c44dcc8	0.012015529
120	0x3c522ecf	0.012828543
121	0x3e45bfcf	0.1931145
122	0xbdd1f8e9	-0.10252554
123	0xbaff5f25	-0.0019483311
124	0x3e3b45a4	0.18288285
125	0x3ca52a8b	0.020161888
126	0x3d49c890	0.049263537
127	0x3c9ea2e7	0.019364787
128	0xbd84e31d	-0.06488631
129	0xbdb466d6	-0.08808677
130	0x3d9ff1fc	0.07809827
131	0xbc397dd4	-0.011321504
132	0x3d2274aa	0.03966204
133	0xbd0451c1	-0.03230453
134	0xbdc0ef08	-0.094205916
135	0x3c76e7eb	0.015069942
136	0xbdae8a7a	-0.08522506
137	0xbdb82d1e	-0.089929804
138	0xbe22e92f	-0.15909265
139	0x3ce3ff1c	0.027831607
140	0x3e1b8f45	0.15191372
141	0x3e1adc79	0.15123166
142	0x3db65798	0.08903426
143	0xbc34de1a	-0.011039281
144	0xbd037915	-0.032097895
145	0xbd510a36	-0.05103513
146	0xbcb9ed93	-0.022696292
147	0xbd01e83a	-0.03171561
148	0x3d5f205e	0.054474227
149	0xbda0f476	-0.07859127
150	0x3c40fa44	0.011778418
151	0xbcc7d2f5	-0.024392584
152	0xbdd3dc00	-0.10344696
153	0x3d8cc45a	0.068733886
154	0x3d62dadb	0.055384498
155	0xbe1a5190	-0.15070176
156	0x3c4d8a23	0.012545141
157	0xbe0a1abf	-0.13486765
158	0xbd9d4438	-0.07679027
159	0x3dc95837	0.09831279
160	0x3d570a87	0.052500274
161	0x3dc5f72d	0.09666286
162	0x3a8ef407	0.0010906466
163	0x3dbdffcf	0.09277307
164	0x3e04726f	0.12934278
165	0x3dbde55e	0.09272264
166	0x3d93a4cc	0.07209167
167	0x3dbe20b4	0.092835814
168	0xbd214764	-0.039374724
169	0xbcc6986a	-0.024242599
170	0x3b4f5931	0.0031638856
171	0x3df49f0a	0.11944397
172	0xbc066b74	-0.00820433
173	0x3d135ed9	0.035979126
174	0xbd8efe34	-0.06982079
175	0x3d0db2fa	0.034594513
176	0xbcbd6487	-0.023119224
177	0x3e5d1bde	0.21592662
178	0xbd5a62f8	-0.05331704
179	0x3d6c00c6	0.057617925
180	0x3df32e1a	0.118740276
181	0xbde7c6cd	-0.11317215
182	0x3e250f9f	0.1611924
183	0x3d451511	0.048115794
184	0xbda2b5e0	-0.07944846
185	0xbcd4f2c2	-0.025994662
186	0xbd5e5b9b	-0.05428658
187	0xbe1a26bd	-0.1505384
188	0x3d9f2e66	0.07772522
189	0x3da54487	0.08069711
190	0xbdc5cb2a	-0.09657891
191	0x3d862b99	0.06551284
192	0x3dcb0d6e	0.09914671
193	0x3e3e0fce	0.18560717
194	0x3e5f416e	0.21802303
195	0x3d4f7e35	0.05065747
196	0x3d3b44be	0.045719855
197	0x3ca8f611	0.020625146
198	0x3daa628d	0.08319578
199	0xbb6aa1ef	-0.0035802086
200	0xbdac5bfe	-0.084159836
201	0xbc20f308	-0.009823568
202	0xbd27b4c6	-0.040943883
203	0xbd888c9f	-0.06667446
204	0xbde6e7f2	-0.11274709
205	0x3e61327f	0.21991919
206	0x3dd328a7	0.10310488
207	0x3bcf9605	0.0063350224
208	0x3db8c05f	0.09021067
209	0xbdb39723	-0.087690614
210	0xbe74e008	-0.23913586
211	0xbde5d061	-0.11221386
212	0xbe0fcf0d	-0.14043827
213	0x3dd22e5c	0.102627486
214	0xbc166fc5	-0.009181921
215	0x3dcbeb36	0.09956972
216	0xbd348ab5	-0.044077594
217	0x3d8e2d92	0.069422856
218	0x3d949d22	0.07256533
219	0xbd79def4	-0.06100364
220	0xbd855b82	-0.06511594
221	0xbe601950	-0.21884656
222	0x3cf91a5e	0.03040808
223	0xbcdbf3ca	-0.026849646
224	0xbe0510f3	-0.12994747
225	0xbcfe5fe4	-0.031051584
226	0x3c09d6ca	0.008413026
227	0xbcec6732	-0.028857801
228	0xbd870974	-0.065936
229	0x3e16cd58	0.1472677
230	0x3b68fc50	0.003555078
231	0x3d9a7c0d	0.07543192
232	0x3d5b3482	0.053516872
233	0x3df29fc6	0.118468806
234	0x3d8d0a6c	0.068867534
235	0x3d18720f	0.03721815
236	0xbd8440ff	-0.064577095
237	0xbd9c640e	-0.076362714
238	0x3e24e9bd	0.16104789
239	0x3d597d53	0.053098034
240	0xbabd3fb3	-0.001443854
241	0xbe20d575	-0.15706427
242	0xbd7ec455	-0.062198956
243	0x3d6759dd	0.056482185
244	0x3de9dc72	0.11419
245	0xbd4faf61	-0.050704364
246	0x3daf7576	0.08567326
247	0x3dc57137	0.09640735
248	0x3d5867f9	0.05283353
249	0x3dcd97eb	0.10038742
250	0x3d3aa6b5	0.04556914
251	0x3d7a827f	0.061159607
252	0xbd10c637	-0.035345282
253	0xbdb86f51	-0.09005607
254	0xbe1b12c5	-0.15143879
255	0xbcca646f	-0.024706094

fc3.bias f4 [100]
0	0x3d5580c4	0.052124754
1	0x3dc7ee87	0.09762292
2	0x3d857455	0.06516329
3	0x3c2be65f	0.0104919365
4	0x3c89d0a1	0.016823115
5	0xbc5473a1	-0.012967021
6	0xbde04238	-0.1095013
7	0xbda230e0	-0.079194784
8	0x3ddcc1ad	0.10779128
9	0x3d290715	0.04126652
10	0xbd924cf6	-0.071435854
11	0xbddd6cc9	-0.10811765
12	0x3c073b30	0.0082538575
13	0xbdb6bf41	-0.089231975
14	0x3ce89d8f	0.028395442
15	0x3d6ea4a9	0.0582625
16	0x3d07ed6a	0.0331854
17	0xbc7db829	-0.015485802
18	0xbbeed656	-0.0072887344
19	0x3e082fe0	0.13299513
20	0x3de56db2	0.11202563
21	0x3d418e4d	0.04725485
22	0x3c3f5158	0.011677109
23	0xbcf43dc7	-0.029814614
24	0x3d115df4	0.03548999
25	0xbcfd7b14	-0.030942477
26	0x3df37372	0.11887254
27	0xbc6bd0cc	-0.014393043
28	0xbdbd64a6	-0.09247713
29	0xbd842407	-0.06452184
30	0xbd4bc21b	-0.04974566
31	0x3bf33621	0.007422224
32	0x3ddd1cf4	0.10796538
33	0xbc95e56a	-0.01829787
34	0xbc10c00e	-0.008834852
35	0xbc9efd70	-0.019407958
36	0x3d980734	0.07423249
37	0x3e0ad3b6	0.13557324
38	0x3d9bed93	0.07613673
39	0xbd59b13b	-0.053147536
40	0x3cf875ed	0.030329669
41	0x3d1f8bf9	0.038951848
42	0xbda23784	-0.07920745
43	0x3e39d5ed	0.18148012
44	0xbc3fd5f3	-0.011708724
45	0xbd7fa117	-0.062409487
46	0xbd2b8542	-0.04187513
47	0xbd3a3f7a	-0.045470692
48	0x3caec5de	0.021334585
49	0x3dcc60ee	0.09979425
50	0x3da8276b	0.082106434
51	0xbcd9cac8	-0.026585951
52	0xbbf0a616	-0.0073440177
53	0x3e0505ed	0.12990542
54	0x3cef9029	0.029243546
55	0x3db80309	0.08984954
56	0xbcba75b6	-0.022761207
57	0xbd34faac	-0.04418437
58	0x3d9ec26e	0.07751928
59	0x3dc37e8f	0.095456235
60	0xbc858966	-0.016300868
61	0x3ba76fce	0.0051097637
62	0x3d4a14c8	0.049336225
63	0x3d9e3445	0.07724813
64	0x3dfe794f	0.124254815
65	0xbdad1269	-0.08450777
66	0x3c6abb74	0.014326919
67	0x3d5a66db	0.053320747
68	0x3deb1db9	0.114802785
69	0xbdc71353	-0.09720483
70	0x3e26e6e9	0.16299023
71	0x3ca4a6dc	0.020099096
72	0xbd8f29fe	-0.06990431
73	0x3dda3114	0.10653892
74	0x3d559ebf	0.052153345
75	0xbb72280e	-0.0036950144
76	0x3e49bba5	0.19700487
77	0xbd826586	-0.0636702
78	0xbd9557a1	-0.072921045
79	0x3bf49107	0.0074635777
80	0xbdb45080	-0.08804417
81	0x3ca3f5e5	0.020014713
82	0x3dac0229	0.083988495
83	0x3e37b218	0.17939031
84	0x3e316d7c	0.17326921
85	0xbe03759f	-0.12837838
86	0xbc95677c	-0.018237822
87	0xbd96eba3	-0.07369163
88	0x3dfdf8b6	0.124009535
89	0x3e63bc45	0.22239788
90	0xbd7a530e	-0.061114363
91	0xbcef8752	-0.02923933
92	0x3d04c564	0.03241481
93	0x3e1762af	0.14783739
94	0x3d639244	0.05555941
95	0x3d040cb3	0.032238673
96	0x3deaa279	0.114567704
97	0x3d0534e3	0.03252114
98	0xbaf386bd	-0.0018579584
99	0x3de0a1f4	0.1096839

fc4.weight f4 [10, 100]
0	0x3e6562ee	0.2240102
1	0xbe8ce746	-0.27520198
2	0x3e292c56	0.16520819
3	0xbd002f86	-0.031295322
4	0xbb03a091	-0.0020084719
5	0xbdee5f9c	-0.1163933
6	0xbbd28f3d	-0.0064257667
7	0x3ca740e3	0.020416683
8	0xbd9b931c	-0.07596418
9	0x3e620619	0.22072639
10	0xbd2fa516	-0.042882048
11	0x3eb1f696	0.34758443
12	0x3eb0ffcb	0.34570155
13	0x3d62c15a	0.055360176
14	0xbe421bcf	-0.1895592
15	0xbd5c9554	-0.053853348
16	0x3e808c07	0.25106832
17	0x3d813086	0.06308083
18	0x3c136c33	0.008997965
19	0xbe4659c3	-0.19370179
20	0xbda1854a	-0.07886751
21	0xbdab1143	-0.08352902
22	0xbef8d098	-0.48596644
23	0x3e9bd453	0.30435428
24	0x3ce3e5ec	0.027819596
25	0xbdcb9e75	-0.09942333
26	0x3cd72c68	0.026266292
27	0x3d61a0b8	0.055084914
28	0xbe182d7b	-0.148611
29	0x3c2a7266	0.010403251
30	0xbe200094	-0.1562522
31	0xbe434509	-0.19069304
32	0xbe085a0f	-0.13315605
33	0xbe37b192	-0.17938831
34	0x3d8a97da	0.06767245
35	0x3d2d06b5	0.042242724
36	0x3c5de72b	0.013543884
37	0xbdac0c69	-0.084008045
38	0xbd4c64de	-0.049900882
39	0x3b4c997e	0.0031219418
40	0xbea928a8	-0.3303883
41	0x3ecf8a77	0.40535328
42	0x3c8283b6	0.015931945
43	0x3d687c8c	0.056759402
44	0x3ecf1c63	0.40451345
45	0x3d5187a2	0.05115474
46	0xbe35a721	-0.17739536
47	0xbd80095d	-0.06251786
48	0x3cc0c2d2	0.023530398
49	0x3da6c7ca	0.081435755
50	0xbddab2b2	-0.10678615
51	0xbc19e0d8	-0.009391986
52	0x3db34370	0.08753097
53	0xbe7bb50e	-0.24580786
54	0x3e931dd6	0.287337
55	0x3e522768	0.20522845
56	0x3e88520e	0.26625103
57	0xbdd2a264	-0.1028488
58	0xbef8085c	-0.48443878
59	0xbe33e2dd	-0.1756701
60	0xbdbfe695	-0.09370152
61	0x3e864aa4	0.2622882
62	0x3e3e740d	0.18598957
63	0xbe625a7d	-0.22104831
64	0xbdf28617	-0.11841982
65	0xbda67d6e	-0.081293926
66	0x3dcd31d2	0.10019268
67	0x3d05d563	0.032674205
68	0x3f07b964	0.5301726
69	0xbd1fb4e2	-0.038990863
70	0xbe82d12d	-0.25550213
71	0xbdaffea2	-0.08593489
72	0xbd8c246a	-0.06842883
73	0xbe5341e3	-0.20630603
74	0xbc397ba2	-0.01132098
75	0x3cd82a02	0.026387218
76	0xbec10714	-0.37700713
77	0xbdee8e23	-0.11648204
78	0xbd7619ff	-0.060083386
79	0x3d676e97	0.05650195
80	0xbcbd77f1	-0.023128482
81	0xbd8bfde7	-0.068355374
82	0xbd8be551	-0.06830848
83	0xbe56ef59	-0.20989741
84	0x3db6f0e5	0.08932666
85	0x3e04d921	0.12973453
86	0xbe18b5b2	-0.14913061
87	0x3d742428	0.059604794
88	0xbe0b4da3	-0.13603835
89	0xbdfd5b5a	-0.123709396
90	0x3c84a189	0.016190307
91	0xbcdde66c	-0.027087413
92	0xbe3e67f7	-0.18594347
93	0xbddc790e	-0.10765277
94	0x3e85b978	0.26118064
95	0xbd88ac14	-0.06673446
96	0xbe8e5648	-0.27800202
97	0xbe3645fa	-0.17800131
98	0xbdc3c7f3	-0.09559622
99	0xbe759126	-0.23981151
100	0xbef061fc	-0.46949756
101	0x3ea0652a	0.31327182
102	0x3cc6b8c9	0.024258034
103	0x3d1d45d8	0.038396686
104	0xbe0a3e50	-0.13500333
105	0xbc905a69	-0.017621236
106	0xbe0c6c06	-0.13713083
107	0x3e0ba720	0.13637972
108	0xbe7a1c01	-0.24424745
109	0xbe9d0f59	-0.30675772
110	0x3dcbe821	0.099563845
111	0xbe90a3eb	-0.2825006
112	0xbece9754	-0.4034983
113	0xbd20de48	-0.039274484
114	0xbbe56996	-0.007001112
115	0xbda6b868	-0.081406415
116	0xbd01b6ea	-0.03166858
117	0x3d74dad7	0.059779014
118	0xbe3ed5bb	-0.18636219
119	0xbd6a5b94	-0.057216242
120	0xbe8d506c	-0.2760042
121	0xbd85ba54	-0.0652968
122	0x3e1d54d2	0.15364388
123	0xbb81f0f5	-0.003965492
124	0xbd0720e6	-0.03299036
125	0x3de2a6b6	0.11066954
126	0xbe34dbae	-0.17661926
127	0xbe55d850	-0.20883298
128	0xbd81c561	-0.06336475
129	0xbbd4f233	-0.006498599
130	0x3d270200	0.04077339
131	0x3df1a63c	0.11799285
132	0x3b299ee0	0.002588205
133	0x3ca5c79e	0.020236786
134	0x3db39e48	0.08770424
135	0xbcefab57	-0.029256506
136	0x3e45b81d	0.19308515
137	0x3e0084a1	0.12550594
138	0x3d286f82	0.041121967
139	0x3db62840	0.08894396
140	0x3e0c65fc	0.13710779
141	0xbd97853a	-0.07398458
142	0xbdcc3e8a	-0.09972866
143	0xbe0c16cb	-0.1368057
144	0xbee56517	-0.44803688
145	0xbd6456ba	-0.05574677
146	0x3dace2fd	0.08441732
147	0x3e144d68	0.14482653
148	0xbcf44fd0	-0.029823214
149	0x3d071b0e	0.032984786
150	0x3e24d0b9	0.16095246
151	0x3ddbdf3e	0.107359394
152	0x3ea931f9	0.3304594
153	0x3ecd977c	0.40154636
154	0xbebb9c75	-0.36642805
155	0xbe70c766	-0.23513564
156	0xbe8b08ff	-0.271553
157	0x3d6e4f76	0.05818125
158	0x3f0b8458	0.54498816
159	0x3ec93805	0.39300552
160	0x3dba726a	0.09103854
161	0xbe91471f	-0.28374574
162	0xbea639da	-0.32466012
163	0x3e69ae59	0.22820415
164	0x3dcde0b8	0.10052627
165	0xbd6f7906	-0.058465026
166	0x3d770c7b	0.060314637
167	0x3dd0cece	0.10195695
168	0xbe2592cd	-0.16169281
169	0xbd4eeaf4	-0.050517038
170	0x3d78becf	0.060728844
171	0xbd3d56fd	-0.046225537
172	0x3e07cce5	0.13261755
173	0xbe6e50ac	-0.23272961
174	0x3e697d9a	0.2280182
175	0xbdc27785	-0.09495453
176	0x3e55b1b5	0.20868571
177	0xbc42ad94	-0.011882205
178	0x3d3feb80	0.04685545
179	0xbd84091b	-0.06447049
180	0x3d3f3399	0.046680067
181	0x3db9aade	0.090657935
182	0xbe053b87	-0.13010989
183	0x3e8d7ae1	0.27632812
184	0xbdbb5f72	-0.09149064
185	0x3ddf4f01	0.10903741
186	0x3bac1a06	0.0052521257
187	0xbdb9b592	-0.09067835
188	0xbd821a6b	-0.06352695
189	0x3f0cd43e	0.55011356
190	0x3c81e4c1	0.015856149
191	0x3df3806f	0.11889731
192	0xbd8d39f7	-0.068958215
193	0x3df13aee	0.11778818
194	0xbebae75c	-0.36504638
195	0x3e515316	0.20441851
196	0x3e17d923	0.14828925
197	0xbc7a5456	-0.015278896
198	0x3ceab83d	0.028652305
199	0x3dd8e43f	0.105904095
200	0x3e0af075	0.1356829
201	0x3d4c9856	0.049949966
202	0xbe834b4b	-0.2564338
203	0x3ea3f667	0.32023928
204	0xbb79893c	-0.0038076183
205	0xbe5727a4	-0.21011215
206	0xbe204192	-0.15650013
207	0x3e0509c2	0.12992004
208	0x3d4510a0	0.048111558
209	0xbd525df3	-0.05135913
210	0xbc498ead	-0.012302083
211	0x3e38f544	0.18062311
212	0x3e445576	0.19173226
213	0xbd877d69	-0.06615717
214	0xbdb97c1c	-0.09056875
215	0x3d6251c5	0.055253763
216	0xbdc6e508	-0.09711653
217	0xbdbb9203	-0.09158709
218	0xbe274d89	-0.16338171
219	0x3eab4acb	0.334555
220	0xbd8f7308	-0.07004362
221	0x3da3be0b	0.07995232
222	0xbd65e07d	-0.05612229
223	0x3da9bda2	0.08288123
224	0x3e6567b9	0.22402848
225	0x3d51d0e1	0.051224593
226	0xbd6998a0	-0.05703032
227	0x3c589cee	0.013221009
228	0xbe5693fb	-0.20954888
229	0x3d83e9ec	0.064411014
230	0xbe4c8542	-0.19972709
231	0xbe83ecda	-0.2576664
232	0xbe3fcb6d	-0.18729945
233	0x3cd2b64a	0.025721688
234	0x3d2f92cc	0.042864606
235	0x3ddf2650	0.108959794
236	0x3e360b11	0.17777659
237	0xbe58abf3	-0.21159343
238	0xbe47c151	-0.19507338
239	0xbd0dc6f3	-0.03461356
240	0xbd809c2a	-0.06279786
241	0x3e2717db	0.16317694
242	0xbca44bcb	-0.020055672
243	0x3dc11577	0.09427922
244	0x3e3c5a22	0.18393758
245	0x3dba14c1	0.0908599
246	0xbb5ad74e	-0.0033392492
247	0x3d233556	0.039845787
248	0xbd1e2861	-0.038612727
249	0x3e3bddd6	0.18346342
250	0xbc52bda8	-0.0128626
251	0x3e8c9b44	0.27462208
252	0xbd63952a	-0.055562176
253	0xbd3367a0	-0.043799996
254	0x3dddda52	0.10832657
255	0xbcd68893	-0.02618817

fc4.bias f4 [10]
0	0xbe81ae7c	-0.25328434
1	0x3e8d33b7	0.27578518
2	0x3bb4eae7	0.0055211666
3	0xbdf07602	-0.11741258
4	0x3d94d83c	0.07267806
5	0x3e8db3a1	0.27676108
6	0x3d45bce4	0.048275843
7	0x3dc2097b	0.094744645
8	0xbecd9ab8	-0.40157104
9	0xbcb26e49	-0.021781104
