PyTorch_Tutorial/Feedforward_Neural_Network/feedforward_neural_network_pytorch_relu2_mnist.pkl (torch, 360671 bytes, 6 tensors)

fc1.weight f4 [100, 784]
0	0x3caff89a	0.021480847
1	0xbcbae94e	-0.022816326
2	0x3c5c44fc	0.0134441815
3	0xbae94540	-0.0017797127
4	0x3c430ce0	0.011904925
5	0xbc848160	-0.016174972
6	0x3cdcc632	0.026949976
7	0x3b3c41f0	0.0028725825
8	0x3c9b3d30	0.018950075
9	0xbb9c91f0	-0.0047781393
10	0xbce50f58	-0.027961418
11	0x3c837278	0.016045794
12	0x3a97bb4b	0.0011576203
13	0x3c9847a4	0.018588848
14	0x3be43bac	0.0069651213
15	0x3b9412a6	0.0045188246
16	0xbcbc329e	-0.022973355
17	0x3d01c393	0.031680655
18	0x3c13ac64	0.009013269
19	0x3c9e0610	0.01929
20	0x3cb6df6a	0.022323329
21	0xbc23e7e0	-0.010004014
22	0xbc1d631c	-0.009606149
23	0xbc90efe0	-0.017692506
24	0x3ca42188	0.02003552
25	0xbce76a01	-0.028248789
26	0x3d07ded3	0.033171486
27	0x3c9176d2	0.017756853
28	0x3c5289f0	0.01285027
29	0x3cdb326a	0.026757438
30	0xbcb4e53e	-0.022081967
31	0x3c0e5820	0.008688003
32	0x3cc6a858	0.024250194
33	0x3c14b64f	0.009076669
34	0x3cf8efa0	0.0303877
35	0xbba5a10f	-0.0050546
36	0x3d0c6158	0.03427252
37	0x3c4cf7f8	0.012510292
38	0x3c645e8b	0.013938556
39	0xbcba8398	-0.022767827
40	0xbc7c89cc	-0.015413713
41	0x3cb0491c	0.021519236
42	0xbd15198f	-0.036401328
43	0x3cd7a926	0.026325773
44	0x3d1520c3	0.036408197
45	0xbcf24ad5	-0.029576698
46	0xbbadc6cc	-0.0053032394
47	0xbd00f4c5	-0.03148343
48	0xbcceacec	-0.02522894
49	0xbcf915b1	-0.030405851
50	0xbc43a937	-0.011942199
51	0x3b4d94b0	0.0031369142
52	0xbc5a3ed8	-0.013320647
53	0xbb610d50	-0.003434021
54	0xbaf0a4c0	-0.0018359646
55	0xbca1a5b3	-0.019732332
56	0x3cae306c	0.021263324
57	0x3c2c99b0	0.010534689
58	0xba84e353	-0.0010138549
59	0xbd001ad8	-0.0312756
60	0x3b9f3d95	0.004859636
61	0xbb897dbc	-0.004195897
62	0xbc45d001	-0.012073518
63	0xbd010e0a	-0.03150753
64	0xbc90f3a8	-0.01769431
65	0xbb9bc340	-0.0047535
66	0xbc51a71f	-0.012796192
67	0xbcc801ed	-0.02441498
68	0x3a94cd22	0.0011352638
69	0xbc6f8227	-0.014618433
70	0xbccf110c	-0.025276683
71	0xbd35cd11	-0.04438502
72	0xbc2c6be2	-0.010523768
73	0xbbffc7d1	-0.0078058024
74	0x3b9c0cfe	0.004762291
75	0xbc782d4f	-0.015147521
76	0xbce59e03	-0.028029447
77	0x3d095a1b	0.033533197
78	0x3bd2aa4e	0.0064289933
79	0xbcc24635	-0.023715118
80	0xbbfab8f9	-0.007651445
81	0xbc408921	-0.011751444
82	0x3c1b34f8	0.009473078
83	0xbccf642e	-0.025316324
84	0x3c605f78	0.0136946365
85	0xbcca10bc	-0.024666183
86	0x3bde9ca5	0.006793576
87	0x3cea1193	0.028572833
88	0x3d037a74	0.032099202
89	0x3c83a559	0.016070055
90	0x3cf7e828	0.030262068
91	0xbd09b692	-0.03362138
92	0x3cded0a2	0.027199093
93	0xbb6bc666	-0.003597641
94	0xbd17c079	-0.03704879
95	0xbcbe36ad	-0.02321943
96	0xbca4af82	-0.02010322
97	0xbce7d7e1	-0.028301181
98	0xbd3510cd	-0.044205476
99	0x3b68a888	0.0035500843
100	0x3b6ca020	0.0036106184
101	0x3c1e5b17	0.009665272
102	0xbad01980	-0.001587674
103	0xbb0f83b0	-0.002189856
104	0xbcba0bf8	-0.022710785
105	0x3ab664b0	0.0013915505
106	0x3cc62b86	0.024190675
107	0xbbd5bf55	-0.0065230527
108	0xbd0b837c	-0.03406094
109	0x3ceff383	0.02929092
110	0x3b03abde	0.0020091454
111	0xbbd0b788	-0.006369535
112	0x3ba51c50	0.0050387755
113	0x3d01f54f	0.031728085
114	0x3cb8954c	0.022532128
115	0x3cf03737	0.029323203
116	0x3c791d89	0.015204796
117	0x3c57e2fd	0.013176677
118	0x3baaa5c4	0.005207749
119	0xbcab7ddd	-0.02093404
120	0xbd1c0743	-0.038092863
121	0x3af18c8b	0.0018428726
122	0xbd1ba057	-0.03799471
123	0xbcb8b600	-0.022547722
124	0xbd22be37	-0.039732184
125	0xbc71626c	-0.014732938
126	0xbceeac4e	-0.029134896
127	0xbc8cc6d7	-0.017184658
128	0xbc1dc5c9	-0.009629675
129	0x3cf0fca0	0.029417336
130	0x3cb5a5a6	0.022173714
131	0xbca93228	-0.0206538
132	0xbd01631c	-0.03158866
133	0x3cf0c89e	0.029392537
134	0xbca21a6c	-0.01978799
135	0xbb824143	-0.003975065
136	0x3cceb735	0.025233844
137	0x3b7d8549	0.003868418
138	0xbbdf1bad	-0.006808719
139	0x3ce14623	0.027499264
140	0x3ca5273e	0.020160314
141	0x3cddcbf6	0.027074795
142	0x3c3ce4c1	0.011529149
143	0x3b58ce99	0.0033082126
144	0xbd2427c4	-0.040076986
145	0x3c26f6fd	0.0101907225
146	0xbc5483e3	-0.012970897
147	0xbd05b809	-0.032646213
148	0xbc346ba6	-0.0110119935
149	0xbce58196	-0.028015893
150	0x3c4f9e8b	0.012672077
151	0x3d28fab2	0.041254707
152	0xbca2667f	-0.019824265
153	0xbc1af780	-0.009458423
154	0xbd04fa05	-0.032465
155	0xbd1f6535	-0.038914878
156	0xbc828b72	-0.015935633
157	0x3d366558	0.044530243
158	0x3d15c790	0.03656727
159	0x3cbe376f	0.023219792
160	0x3cd5208d	0.026016498
161	0xbbec96a3	-0.0072201057
162	0x3d47a8f1	0.0487451
163	0x396baf74	0.00022476708
164	0x39576848	0.00020542846
165	0x3d01cd9c	0.031690225
166	0x3cc9c41f	0.02462965
167	0xbce07cd6	-0.027403276
168	0x3c13d734	0.009023476
169	0x3c5b4636	0.013383439
170	0x3d008096	0.03137263
171	0xbc954f86	-0.018226396
172	0x3c935b70	0.017987937
173	0xbd523d48	-0.051327974
174	0xbd275c10	-0.040859282
175	0xbcec7fca	-0.028869528
176	0xbd0b8e0f	-0.034071025
177	0xbd4ebe37	-0.05047437
178	0xbd2d1aab	-0.04226176
179	0xbd1b358e	-0.03789287
180	0x3cacfac8	0.021115676
181	0x3cefb543	0.029261237
182	0x3d33931c	0.043841466
183	0x3d36cd2c	0.04462926
184	0x3d2f6e0e	0.042829566
185	0x3cba4924	0.022739954
186	0x3cc7ad2e	0.02437457
187	0x3c52636d	0.012841088
188	0x3d2127d6	0.03934463
189	0x3c7414f7	0.0148975765
190	0x3d70ad7c	0.058759198
191	0x3ce647e4	0.028110452
192	0x3b9f6c09	0.0048651737
193	0x3d049f59	0.03237853
194	0xbcdf77a5	-0.02727873
195	0x3ca1d95f	0.01975697
196	0xbc9ba6fa	-0.019000519
197	0xbcc9fa76	-0.024655562
198	0xbce9f8f7	-0.028561099
199	0xbbf52133	-0.0074807643
200	0xbcae4767	-0.021274282
201	0xbc31c1ce	-0.010849429
202	0xbca1d9ca	-0.01975717
203	0x3b70afbc	0.003672584
204	0xbc898ea1	-0.016791644
205	0xbaeee3c6	-0.0018225841
206	0x3d37c5ea	0.04486648
207	0x3a7ee43f	0.00097233424
208	0x3ca430d1	0.020042809
209	0x3d0bbbc3	0.03411461
210	0x3ca6b796	0.020351212
211	0x3d602ecb	0.054732125
212	0x3c230be2	0.009951564
213	0x3da5b8c0	0.08091879
214	0x3d46c083	0.048523437
215	0x3d78d1cb	0.06074695
216	0xbc045705	-0.008077388
217	0x3ccb653c	0.024828546
218	0x3d4467fc	0.04795073
219	0x3d72eac9	0.05930594
220	0x3d3aeb07	0.045634296
221	0xbc090e39	-0.008365207
222	0xbcfeb871	-0.031093808
223	0x3c5e4f54	0.013568718
224	0x3cdf715d	0.027275736
225	0xbd0ade17	-0.033903208
226	0xbcf16693	-0.029467857
227	0x3c432c9a	0.011912489
228	0xbd693b39	-0.056941245
229	0xbd674d2a	-0.056470074
230	0xbc2aa06e	-0.010414226
231	0xbc6ba5dd	-0.014382807
232	0x3c9b853b	0.018984428
233	0xbcd339cf	-0.025784401
234	0x3d06a3da	0.032871105
235	0x3d7051d2	0.05867178
236	0x3a1494f3	0.0005667947
237	0xbc0a5dab	-0.008445184
238	0x3d5e6758	0.054297775
239	0x3ca04308	0.019563213
240	0x3d2f44e8	0.042790323
241	0x3bc083de	0.005875095
242	0x3d30542a	0.043049015
243	0x3cd08e0e	0.025458362
244	0x3b682dda	0.003542772
245	0xbbf2d8f3	-0.0074111163
246	0x3d67db24	0.056605473
247	0x3d0c2610	0.034215987
248	0x3daf3550	0.085550904
249	0x3b9e1ff2	0.0048255855
250	0x3cd4eae4	0.02599091
251	0xbcd40540	-0.02588141
252	0x3cfecd6c	0.031103812
253	0xbb204e5b	-0.0024460766
254	0x3ce71f37	0.028213127
255	0xbc03d6f2	-0.008046852

fc1.bias f4 [100]
0	0x3dce2920	0.10066438
1	0xbce06201	-0.027390482
2	0x3dba9591	0.09110559
3	0xbd045406	-0.032306693
4	0xbdec5e1f	-0.1154139
5	0xbaa6b3f3	-0.0012718424
6	0x3dbf68cf	0.093461625
7	0xbc73deba	-0.014884645
8	0x3d268af9	0.04065988
9	0x3d88e531	0.0668434
10	0x3d36895c	0.04456459
11	0x3d8cf9a4	0.06883553
12	0xba745c41	-0.0009321608
13	0x3dbab44c	0.0911642
14	0x3d59d25a	0.053179123
15	0x3c7f5a61	0.015585513
16	0x3dad7a88	0.084706366
17	0x3d019a6e	0.031641416
18	0x3cc754dd	0.024332458
19	0x3dd51000	0.104034424
20	0x3d19273f	0.037390944
21	0xbd29eeb9	-0.04148743
22	0xbc9aacd5	-0.01888124
23	0x3e0f0c32	0.13969496
24	0x3e261da3	0.16222243
25	0x3dd76742	0.10517742
26	0x3d7ca1ff	0.06167793
27	0x3cc319e0	0.02381605
28	0xbd83f5ea	-0.06443389
29	0x3c35c5fd	0.011094567
30	0x3d06f32c	0.03294675
31	0x3d37106e	0.044693403
32	0x3d8e0c07	0.06935888
33	0x3cef283d	0.029193992
34	0x3d4c153c	0.04982494
35	0xbd818b47	-0.06325393
36	0xbcdbfd11	-0.02685407
37	0xbd47866c	-0.04871218
38	0x3d389dff	0.04507255
39	0xbd01c3e7	-0.031680968
40	0x3d8259ae	0.06364761
41	0xbd029d54	-0.03188832
42	0x3e1217d1	0.14266898
43	0x3d475721	0.048667077
44	0xbdaf6869	-0.085648365
45	0x3d7a2fa6	0.061080597
46	0x3d1b3bfa	0.037898995
47	0xbe182511	-0.1485789
48	0x3cc4ccf6	0.024023514
49	0xbce96886	-0.028492223
50	0xbd97891a	-0.07399197
51	0xba1a170c	-0.0005878068
52	0xbbedd986	-0.007258597
53	0x3d25fd89	0.040524993
54	0xbd448d59	-0.047986362
55	0xbb29693c	-0.0025850078
56	0x3cd7cd33	0.026342964
57	0x3b273b96	0.0025517694
58	0x3c280ec5	0.010257428
59	0x3b882a2c	0.004155418
60	0xbc0d7c9b	-0.008635665
61	0x3bdeb514	0.0067964885
62	0x3e15ea9b	0.14640276
63	0x3e01b876	0.12668023
64	0x3d645ce0	0.055752635
65	0x3e073215	0.13202699
66	0x3d86c481	0.06580449
67	0x3cd17957	0.025570555
68	0x3e1362e1	0.14393188
69	0x3d1f969f	0.038962003
70	0xbc82ddce	-0.015974905
71	0xbc99cd13	-0.018774545
72	0x3cc20962	0.023686115
73	0x3b4a7235	0.0030890827
74	0xbbbe8bea	-0.005815019
75	0x3d344095	0.044006903
76	0x3d3522fd	0.04422282
77	0xbafc692a	-0.0019257416
78	0x3d87aab4	0.06624356
79	0x3be195ed	0.0068843276
80	0xbbd5a022	-0.0065193335
81	0x3cf98eb8	0.030463561
82	0xbc91af31	-0.017783733
83	0xbd8809fd	-0.0664253
84	0x3d40f490	0.047108233
85	0x3c6970c4	0.014248077
86	0x3d6d7cfc	0.057980523
87	0xbcbea2a3	-0.02327091
88	0xbacbb6ae	-0.0015542114
89	0x3ca34cef	0.019934146
90	0xbcd38c2c	-0.025823675
91	0x3ccef94c	0.025265358
92	0x3db4b3cd	0.08823357
93	0x3ce018a4	0.0273555
94	0x3d8b2d9d	0.067958094
95	0x3c9b49cc	0.018956088
96	0xbd8e644d	-0.069527246
97	0x3da806b0	0.082044005
98	0xbbd6cfc4	-0.0065555293
99	0x3d4f6985	0.05063774

fc2.weight f4 [100, 100]
0	0xbdbcedc1	-0.092250355
1	0x3c58c3cd	0.013230276
2	0x3dd98ac9	0.10622174
3	0xbd2db54f	-0.042409237
4	0xbd2bcae5	-0.041941542
5	0xbdde399c	-0.10850832
6	0x3dc6ced8	0.09707421
7	0x3cb4136c	0.021981917
8	0x3d2707e0	0.040778995
9	0xbdbf376e	-0.09336744
10	0x3e1bdccf	0.1522095
11	0xbd882401	-0.06647492
12	0xbdcc3c1d	-0.09972403
13	0x3e10aacf	0.14127658
14	0x3d396f68	0.04527226
15	0x3dd2ed2d	0.10299144
16	0x3dfafe1e	0.122555
17	0x3dc9fc28	0.09862548
18	0xbdadc4d8	-0.084848106
19	0xbd25f59f	-0.040517446
20	0x3e23cafd	0.15995403
21	0x3dca016d	0.09863553
22	0xbdbaf593	-0.09128871
23	0xbd28d52e	-0.04121893
24	0xbdf4e890	-0.1195842
25	0x3d9bfd84	0.07616714
26	0xbdb3cb20	-0.087789774
27	0xbd80bfb0	-0.062865615
28	0xbd666b22	-0.056254514
29	0xbc9ec744	-0.019382127
30	0x3c51d0d4	0.012806136
31	0xbe3747c8	-0.17898476
32	0xbda0a40f	-0.07843792
33	0xbdba008e	-0.09082137
34	0x3d35d655	0.044393856
35	0x3e2edbfa	0.17076102
36	0xbd29718a	-0.041368045
37	0x3e58adca	0.21160045
38	0xbe36ba55	-0.17844518
39	0x3cc8ad60	0.024496734
40	0x3e289538	0.16463172
41	0xbd289875	-0.04116102
42	0x3cbf24c5	0.023332963
43	0xbce2a9f1	-0.027668925
44	0xbdcc4d84	-0.099757224
45	0xbcf5e2e9	-0.030015426
46	0xbd4506fa	-0.048102356
47	0xbd877022	-0.066131845
48	0xbcaaf311	-0.020867856
49	0xbd8b9ec3	-0.06817391
50	0xbd4a9040	-0.049453974
51	0xbd4154b6	-0.047199927
52	0x3e03b906	0.1286355
53	0x3dd648fa	0.10463138
54	0x3cb3d160	0.021950424
55	0xbe22278a	-0.15835395
56	0x3d31ac42	0.04337717
57	0xbbd1872a	-0.0063942866
58	0xbba5a5ea	-0.005055179
59	0xbcfea714	-0.031085528
60	0xbe122aeb	-0.14274184
61	0x3d744487	0.059635665
62	0x3defce01	0.11709214
63	0x3ccc650a	0.024950523
64	0xbd1e4175	-0.038636643
65	0x3e093dcf	0.13402484
66	0x3dfd4de8	0.12368375
67	0x3cf84fbd	0.03031146
68	0xbd6e4817	-0.05817422
69	0x3e147d3d	0.145009
70	0xbbaeaa2e	-0.0053303456
71	0xbddad395	-0.10684887
72	0xbc3ffc0e	-0.011717809
73	0xbdf7dd02	-0.12102701
74	0x3d57963e	0.052633516
75	0x3e02d665	0.12777098
76	0xbdeee177	-0.11664098
77	0xbcaa69f5	-0.020802477
78	0x3d8777c6	0.06614642
79	0xbdc3c235	-0.095585264
80	0xbdd25513	-0.10270133
81	0xbd2af013	-0.04173286
82	0x3d49e3eb	0.049289625
83	0xbd4df49d	-0.05028211
84	0xbd855be3	-0.065116666
85	0x3e3da610	0.18520379
86	0xbde3e5e7	-0.11127835
87	0xbd302ce1	-0.04301155
88	0x3d41aa31	0.047281448
89	0xbd09a826	-0.033607624
90	0x3c9592ce	0.018258478
91	0x3d54af59	0.051925037
92	0xbc8fc749	-0.017551081
93	0x3cf7a9bf	0.030232308
94	0x3d1a0b15	0.037608225
95	0x3d936d32	0.07198562
96	0xbe3278e2	-0.17428926
97	0x3d9d964f	0.07694685
98	0x3d62980d	0.05532079
99	0xbd4aeaa0	-0.049540162
100	0x3ddb9b3d	0.10722969
101	0xbcfc72df	-0.030816494
102	0xbc7a8e52	-0.015292721
103	0x3d5b1116	0.05348309
104	0xbe130367	-0.14356767
105	0x3d376fc1	0.04478431
106	0x3e3fa048	0.18713486
107	0xbdb52e37	-0.088467054
108	0x3e112be2	0.14176896
109	0x3d32652d	0.04355352
110	0xbe1aef1a	-0.15130273
111	0xbd05f1e2	-0.03270138
112	0xbdc8bac6	-0.09801249
113	0x3d00fd34	0.031491473
114	0x3cbe73b9	0.02324854
115	0xbde8b106	-0.113618895
116	0x3e2b213d	0.16711898
117	0xbdc14435	-0.094368376
118	0xbda7b6cb	-0.08189162
119	0xbd8e9a1a	-0.06962986
120	0x3d97225e	0.07379602
121	0xbdf33657	-0.11875599
122	0xbcc31664	-0.023814388
123	0x3e48564b	0.19564168
124	0x3dc7cb29	0.097555466
125	0xbd53e13b	-0.05172847
126	0x3c94ed2e	0.018179502
127	0xbddce777	-0.10786336
128	0x3d854294	0.065068394
129	0xbd1d1054	-0.03834565
130	0x3cf0d65c	0.02939909
131	0x3cc4c002	0.024017338
132	0xbe05908a	-0.13043419
133	0x3d3d3392	0.04619176
134	0xbd668e84	-0.056288257
135	0x3cfea502	0.031084541
136	0x3d0c7212	0.034288473
137	0xbda8dce3	-0.08245256
138	0x3d6a0da5	0.05714192
139	0xbcd475c3	-0.02593506
140	0xbe1e6b3e	-0.15470597
141	0xbcd18d8d	-0.025580192
142	0xbd957f01	-0.07299615
143	0xbd30393f	-0.043023344
144	0x3cc31bdc	0.023816995
145	0xbb56b91f	-0.003276415
146	0xbd4f6a78	-0.050638646
147	0x3cc98035	0.024597267
148	0xbdc63ac5	-0.09679178
149	0xbd05c310	-0.03265673
150	0xbdbc38cd	-0.091905214
151	0xbd2616b5	-0.040549
152	0xbd3b6ff0	-0.04576105
153	0xbdc80bdc	-0.09767887
154	0x3d135935	0.035973746
155	0x3da98bca	0.08278616
156	0x3d916a0e	0.071003065
157	0xbc98e7f4	-0.018665291
158	0x3d51cc6e	0.05122035
159	0xbda23d13	-0.07921805
160	0xbdd4257e	-0.103587136
161	0x3d554d46	0.052075647
162	0x3dbf3b57	0.0933749
163	0x3d97f0f5	0.07419006
164	0xbca91701	-0.020640852
165	0x3e0f5e83	0.14000897
166	0xbd50f205	-0.051012058
167	0x3d042fe6	0.032272242
168	0x3c90407e	0.017608877
169	0x3d283a05	0.041070957
170	0xbd9d75b2	-0.07688464
171	0xbb0aff94	-0.0021209465
172	0x3de363d0	0.11103022
173	0xbd6ab7b6	-0.057304107
174	0x3c4091c1	0.0117535
175	0xbdaf054c	-0.08545932
176	0x3d7c42a3	0.061586987
177	0xbdb62963	-0.08894613
178	0xbd765f08	-0.060149223
179	0x3d449ce0	0.04800117
180	0xbaeeb7b3	-0.0018212706
181	0x3d36681e	0.044532888
182	0xbd8d3754	-0.068953186
183	0xbd9b8b71	-0.07594956
184	0xbd57aa1d	-0.052652467
185	0xbced057e	-0.028933283
186	0x3d745a8b	0.05965666
187	0xbd8eb332	-0.069677725
188	0x3d8f0de0	0.06985068
189	0xbd19af97	-0.03752097
190	0xbcd3a2ec	-0.025834523
191	0xbcc09a1f	-0.02351099
192	0xbc2ed722	-0.010671409
193	0xbc2cecfb	-0.010554547
194	0xbcf2b507	-0.029627336
195	0x3b99a450	0.004688777
196	0x3d85db97	0.06536024
197	0xbde24a62	-0.11049344
198	0xbd7e14d0	-0.062031567
199	0xbd603d21	-0.054745797
200	0x3d49c2a3	0.049257886
201	0xbe2fa2d2	-0.17151955
202	0x3d6c3e79	0.057676766
203	0xbc6859c6	-0.01418156
204	0x3e4677c2	0.19381621
205	0xbdc4466b	-0.09583744
206	0xbe4d5c4d	-0.20054741
207	0x3d852893	0.065018795
208	0x3e06b0c4	0.13153368
209	0x3b880411	0.0041508754
210	0x3e72d76b	0.23714988
211	0x3d4f2668	0.050573736
212	0x3d53da2c	0.051721737
213	0x3cc7b8c4	0.024380095
214	0x3c877725	0.016536305
215	0xbe0b3397	-0.13593899
216	0x3e202bb9	0.15641679
217	0x3d708a8f	0.05872589
218	0x3e1740dd	0.14770837
219	0x3d16a955	0.03678258
220	0xbdf48111	-0.1193868
221	0x3b5316e8	0.0032209698
222	0xbdb5ab2e	-0.088705406
223	0xbd4323f4	-0.04764171
224	0xbde3a7fe	-0.11116026
225	0x3dd10ef8	0.10207933
226	0xbde158a1	-0.11003233
227	0x3df8d18a	0.121493414
228	0x3dcb19b6	0.09917013
229	0x3da408d1	0.08009494
230	0xbe22d9f1	-0.1590345
231	0x3e26ff8e	0.16308424
232	0x3e2cdbfa	0.1688079
233	0x3de03bee	0.10948931
234	0xbd2f99ab	-0.04287116
235	0x3e3a032b	0.18165271
236	0x3d6388dc	0.05555044
237	0xbde27d8e	-0.11059104
238	0xbc831e13	-0.016005551
239	0xbd642da6	-0.055707596
240	0x3da853e1	0.08219124
241	0x3de081c7	0.10962253
242	0x3e24df79	0.16100873
243	0x3e396727	0.18105756
244	0xbcccf2a7	-0.02501805
245	0x3e3b48a1	0.18289424
246	0x3dae8999	0.085223384
247	0x3e17402e	0.14770576
248	0x3b806787	0.0039185914
249	0xbe40e8d3	-0.18838815
250	0x3da70aba	0.08156343
251	0x3e18afa0	0.14910746
252	0x3c377b49	0.011198827
253	0x3c002e2f	0.007823511
254	0xbcb03371	-0.021508904
255	0x3e1041d5	0.14087613

fc2.bias f4 [100]
0	0xbcaa3a77	-0.020779831
1	0x3d8bc0bc	0.068238705
2	0x3e0b1235	0.13581164
3	0xbd1043a1	-0.035220746
4	0xbd043bec	-0.03228371
5	0x3dc82272	0.09772195
6	0xbdc3afe2	-0.09555031
7	0xbdcd4656	-0.10023181
8	0xbcfd29a9	-0.030903654
9	0xbd08930e	-0.033343367
10	0xbda3eba8	-0.08003932
11	0xbc0db3b7	-0.008648804
12	0x3e4d4140	0.20044422
13	0x3d9561cd	0.07294045
14	0x3cd130f4	0.025536038
15	0x3d888304	0.06665614
16	0xbc2422c8	-0.010018058
17	0xbc8c1189	-0.017098205
18	0xbd29d46e	-0.041462354
19	0x3db7262e	0.08942829
20	0x3c9fa02c	0.019485556
21	0x39ccff6c	0.00039100216
22	0x3d1ff73b	0.039054137
23	0x3b410054	0.0029449658
24	0x3ba73b17	0.0051034796
25	0x3e0fc817	0.14041172
26	0xbd039d79	-0.0321326
27	0x3d918b6b	0.0710667
28	0x3dcce87d	0.10005281
29	0x3d0e96e8	0.034811884
30	0xbb8fcf2b	-0.00438871
31	0x3d890660	0.06690669
32	0x3e1205b1	0.14259984
33	0x3dda8c5f	0.10671305
34	0xbdb8ed12	-0.090295926
35	0xbd880dd0	-0.066432595
36	0x3e1edbb1	0.15513493
37	0x3e458ead	0.19292708
38	0x3cbc6c2f	0.023000805
39	0x3dfdf87a	0.12400909
40	0xbd96c60a	-0.07361992
41	0xbd0d821b	-0.034547906
42	0xbdbbf1c6	-0.09176974
43	0x3e1c891f	0.15286683
44	0x3bf75b68	0.0075487383
45	0xbd84062b	-0.06446489
46	0xbd80a1e5	-0.06280879
47	0x3d7918c1	0.060814623
48	0x3d58a74f	0.052893933
49	0xbcef8440	-0.029237866
50	0x3d1838c2	0.037163503
51	0x3d9c9126	0.07644872
52	0xbd8d2f3f	-0.06893777
53	0xbd750074	-0.059814885
54	0xbe0f8441	-0.14015295
55	0x3dbb9a3e	0.09160279
56	0xb92e0b78	-0.00016598206
57	0xbdad2b8f	-0.08455574
58	0xbd69112d	-0.056901146
59	0xbe040f6b	-0.12896506
60	0x3d9c6546	0.07636504
61	0xbcc54745	-0.024081836
62	0x3d688dc5	0.056775827
63	0xbddb781b	-0.10716268
64	0x3e048c72	0.129442
65	0xbcca167d	-0.024668926
66	0x3dc9b22f	0.09848439
67	0xbdc7c5cb	-0.09754523
68	0xbd8a41e9	-0.067508526
69	0x3dd3a18e	0.103335485
70	0x3a77c55b	0.00094517105
71	0x3ddb7678	0.107159555
72	0xbd390f9d	-0.045180906
73	0x3cf9ec53	0.030508196
74	0xbdbf86c9	-0.0935188
75	0x3dc78efe	0.097440705
76	0x3e2714ff	0.16316603
77	0x3e2169bd	0.15762992
78	0x3dbb70be	0.09152363
79	0xbb6ee206	-0.0036450638
80	0xbcf38ba3	-0.02972967
81	0x3cb82d0a	0.022482414
82	0x3d85a676	0.065258905
83	0xbc49230d	-0.012276423
84	0xbd70bbd8	-0.05877289
85	0x3e347c09	0.1762544
86	0x3beeb6b8	0.0072849654
87	0x3d9c9751	0.07646049
88	0x3d858fac	0.06521544
89	0x3cb3a7d6	0.021930616
90	0xbd4486d6	-0.047980152
91	0xbd8941a5	-0.06701974
92	0x3ca37c21	0.01995665
93	0xbd55e99f	-0.05222475
94	0x3bad1c6d	0.0052829296
95	0xbcc1eb8b	-0.023671886
96	0x3d8c60dc	0.06854412
97	0x3ddb26e1	0.10700775
98	0x3d3b0f94	0.045669153
99	0x3e2b45a8	0.1672579

fc3.weight f4 [10, 100]
0	0xbdf45242	-0.11929752
1	0xbe07c195	-0.1325744
2	0xbed8bdd1	-0.42332318
3	0x3ed2a410	0.41140795
4	0xbe6580fd	-0.22412486
5	0x3dec144d	0.115273096
6	0xbd9915c5	-0.07474855
7	0x3da5d76d	0.0809773
8	0xbd02ff55	-0.031981785
9	0xbe47a3d9	-0.19496097
10	0xbd02b2d5	-0.03190883
11	0xbe5258bf	-0.20541666
12	0xbe11bc11	-0.14231898
13	0xbdb334bb	-0.08750292
14	0x3c432907	0.011911637
15	0x3e786499	0.24257125
16	0xbdc522be	-0.09625767
17	0xbdaacc15	-0.08339707
18	0x3e30f3ed	0.1728055
19	0xbe2a794d	-0.16647835
20	0x3e95cd98	0.29258418
21	0xbe21d96a	-0.15805593
22	0xbe2cde6c	-0.16881722
23	0xbdc537d4	-0.09629789
24	0x3e658836	0.22415242
25	0xbeadd974	-0.33954966
26	0x3ea0514b	0.31312022
27	0x3e97a902	0.2962113
28	0xbd42ecdc	-0.047589168
29	0xbdfc6084	-0.123230964
30	0xbe2ccc49	-0.16874804
31	0xbe3ee2ff	-0.1864128
32	0xbe8482e6	-0.25881118
33	0xbe5cd551	-0.21565749
34	0x3df1f26e	0.11813818
35	0x3ce4df60	0.027938545
36	0xbdef0d41	-0.1167245
37	0xbeacb7fb	-0.33734116
38	0xbd4ad977	-0.049523797
39	0xbe89bdf2	-0.2690273
40	0x3e2fe35f	0.17176579
41	0x3da32516	0.07966058
42	0xbceff896	-0.02929334
43	0xbebec0cc	-0.37256467
44	0x3eafcf7b	0.34337983
45	0xbbb2c8b4	-0.0054560546
46	0x3c8da4b6	0.017290454
47	0xbe0d7763	-0.13815074
48	0x3e804f4e	0.25060505
49	0xbc3465f2	-0.011010634
50	0x3dd1cd01	0.102441795
51	0xbea3ccbf	-0.31992146
52	0x3e68d7a1	0.22738506
53	0x3a2f2576	0.00066813023
54	0xbe47eedb	-0.1952471
55	0xbebf76af	-0.37395236
56	0x3d99f644	0.075176746
57	0xbdbce3ad	-0.09223113
58	0xbd3813e5	-0.044940848
59	0x3dba6a81	0.09102345
60	0xbe96669e	-0.29375166
61	0x3dae59e1	0.08513237
62	0x3e03ffc9	0.12890543
63	0x3e1f9c32	0.15586928
64	0x3dafb978	0.08580297
65	0x3e378b67	0.17924272
66	0x3c1e272c	0.009652894
67	0x3e5dd923	0.21664862
68	0x3d3b641b	0.045749765
69	0x3dce18bb	0.10063311
70	0x3dbc9c1c	0.09209463
71	0x3e6d94f5	0.23201354
72	0xbde2b413	-0.11069503
73	0xbb85ced6	-0.0040834947
74	0x3ae5c38f	0.0017529594
75	0x3d536632	0.051611133
76	0xbe0f6967	-0.14005052
77	0x3d464306	0.048403762
78	0xbe3be857	-0.1835035
79	0xbd6eefa5	-0.05833401
80	0x3d82748f	0.06369888
81	0xbd7c6f5c	-0.061629638
82	0xbe66a9e4	-0.22525746
83	0xbdc53752	-0.09629692
84	0x3e8b79ef	0.27241465
85	0x3de368ef	0.11103999
86	0xbe57d6c7	-0.21078025
87	0xbee15d4d	-0.44016495
88	0xbe52409e	-0.20532462
89	0x3d87c5d6	0.06629531
90	0x3ebd3bce	0.3695969
91	0xbdb58378	-0.08862966
92	0xbe05f3ff	-0.13081358
93	0xbcfcb3ea	-0.030847508
94	0x3d624fd7	0.055251922
95	0xbe00f0c8	-0.12591851
96	0x3e28e312	0.1649287
97	0x3ec36e1b	0.3816994
98	0xbdf32342	-0.11871959
99	0x3dc8cb0d	0.09804354
100	0x3dc66c71	0.09688652
101	0xbd89f876	-0.06736843
102	0x3e6050d1	0.21905829
103	0x3d323c2b	0.043514412
104	0x3db7290d	0.08943377
105	0xbe79f5cf	-0.24410175
106	0x3d5d63ba	0.054050185
107	0xbd4de423	-0.050266396
108	0xbdb864d5	-0.09003607
109	0x3e87c4a0	0.265172
110	0xbdaf1c77	-0.08550351
111	0x3ca63fa2	0.020294014
112	0x3ebc9ffb	0.36840805
113	0x3dce9d36	0.10088579
114	0xbdeecb66	-0.11659889
115	0xbedcd95b	-0.4313458
116	0x3e63b522	0.22237065
117	0x3b446498	0.0029967185
118	0xbeb32bd0	-0.34994364
119	0xbe81c2fc	-0.25344074
120	0xbce0b439	-0.027429687
121	0xbe0da5c6	-0.13832769
122	0xbd5a246b	-0.053257387
123	0xbe56b2c0	-0.20966625
124	0xbdaaa38e	-0.08331977
125	0x3ea9de0a	0.33177215
126	0xbf12ff90	-0.5742121
127	0xbe5c58f1	-0.21518303
128	0xbea9988e	-0.33124202
129	0xbdbbd4f3	-0.09171476
130	0xbdc78695	-0.09742466
131	0x3d913240	0.070896626
132	0xbd7d985a	-0.061912872
133	0x3e190e1c	0.14946789
134	0xbc594ff9	-0.013263696
135	0xbd958738	-0.073011816
136	0x3dc8f3d0	0.098121285
137	0x3e978320	0.29592228
138	0x3e5af03f	0.21380709
139	0x3df9dd36	0.12200396
140	0xbc509c6a	-0.0127326045
141	0x3d9a698e	0.07539664
142	0xbdc50798	-0.09620589
143	0x3e1833e8	0.1486355
144	0xbe4f6b97	-0.20255886
145	0xbca3b2bf	-0.019982694
146	0xbd898aaf	-0.06715905
147	0xbe43513a	-0.19073954
148	0xbd6e3d8c	-0.058164164
149	0xbce14c06	-0.027502071
150	0xbd94ae4d	-0.07259808
151	0x3dbed7ae	0.093184814
152	0xbde7f299	-0.11325569
153	0x3df6f696	0.12058751
154	0x3e81078d	0.25201073
155	0xbdda0e47	-0.106472544
156	0xbd20e453	-0.039280247
157	0x3c9bd162	0.01902074
158	0x3c52c43f	0.0128641715
159	0xbe157ca2	-0.14598325
160	0x3f16ac15	0.58856326
161	0x3cd0b775	0.025478104
162	0xbd05a13c	-0.03262447
163	0xbd9bad01	-0.07601357
164	0xbf227ceb	-0.6347186
165	0x3c03313f	0.008007347
166	0x3edef5f5	0.43547025
167	0xbe1ef105	-0.15521629
168	0x3dffc0f2	0.12487973
169	0xbe16b21b	-0.1471638
170	0x3c95dcf4	0.018293835
171	0x3e702f85	0.23455627
172	0xbc9ce67a	-0.019152869
173	0xbe08859f	-0.13332222
174	0x3d424caf	0.047436412
175	0x3e478a5e	0.19486377
176	0x3e082a33	0.13297348
177	0x3e9a27d3	0.30108508
178	0x3e828406	0.2549135
179	0x3caaaeb5	0.02083526
180	0xbdc94b5e	-0.09828828
181	0xbd477920	-0.0486995
182	0x3e7b78a3	0.24557738
183	0x3d2c1a54	0.042017296
184	0xbe60a354	-0.21937305
185	0x3ea6b27c	0.32558048
186	0x3d10edb5	0.035382945
187	0x3ea461cf	0.32105872
188	0xbeccebd5	-0.40023676
189	0x3d4f9a78	0.050684422
190	0xbe886193	-0.26636943
191	0xbc77e63d	-0.015130577
192	0xbe4df9c4	-0.2011481
193	0x3db9b2e4	0.09067324
194	0x3db5f617	0.088848285
195	0xbe8e4537	-0.27787182
196	0xbd8d9fb3	-0.06915226
197	0x3d30a1e0	0.043123126
198	0x3e8a25e0	0.2698202
199	0x3e419846	0.18905744
200	0xbe19f876	-0.15036187
201	0xbc9d04d4	-0.019167341
202	0x3f1010e4	0.56275773
203	0xbe8b018c	-0.27149618
204	0x3ece19c9	0.40254048
205	0x3e09f2fd	0.13471599
206	0xbcde1f3e	-0.027114507
207	0x3d4feb6c	0.050761625
208	0xbd6f9758	-0.058493942
209	0xbe420997	-0.1894897
210	0x3dd976a2	0.106183305
211	0x3ef33241	0.47499278
212	0xbdfa4afc	-0.122213334
213	0xbc0e97d8	-0.008703195
214	0x3e2c7eb6	0.16845211
215	0x3d46bef8	0.048521966
216	0xbbe0d840	-0.0068617165
217	0xbc8a2189	-0.016861694
218	0x3ececc12	0.40390068
219	0x3dee2fbd	0.11630199
220	0x3eb7865f	0.35844705
221	0x3d0e03c1	0.03467155
222	0x3dd9133f	0.10599374
223	0xbee2343f	-0.44180486
224	0x3e678f79	0.22613324
225	0xbe9967ad	-0.2996191
226	0x3dc6069e	0.09669231
227	0xbdc0ed62	-0.09420277
228	0x3e84abb0	0.25912237
229	0xbd88f963	-0.06688192
230	0x3e9c9994	0.3058592
231	0xbdd633f8	-0.10459131
232	0xbe0ebe81	-0.13939859
233	0x3ed16997	0.4090087
234	0xbe1c3f8f	-0.1525862
235	0x3d088398	0.033328623
236	0xbba77039	-0.0051098135
237	0xbe6cc44f	-0.23121761
238	0x3e89e895	0.26935259
239	0xbead54f8	-0.3385389
240	0x3dac6098	0.08416861
241	0x3d6a4cef	0.057202276
242	0x3d56e212	0.05246169
243	0x3cc0a9c7	0.023518456
244	0xbde60e06	-0.112331435
245	0xbcc43f33	-0.023955917
246	0x3db29b5b	0.08721038
247	0xbb8e7920	-0.0043479353
248	0x3e02ed02	0.12785724
249	0x3cea9f12	0.028640304
250	0xbe5f0bde	-0.2178187
251	0xbee416cf	-0.44548652
252	0xbe9d9a91	-0.30781987
253	0x3d241672	0.040060468
254	0x3e3523ce	0.1768944
255	0x3d825b02	0.063650146

fc3.bias f4 [10]
0	0xbe58c565	-0.2116905
1	0x3e469db5	0.19396098
2	0xbd87094c	-0.0659357
3	0xbd0db4f8	-0.034596413
4	0x3de12533	0.10993423
5	0x3df3cbbf	0.11904096
6	0x3ce611a7	0.02808459
7	0x3e13eada	0.14445058
8	0xbea184df	-0.31546685
9	0x3bec927e	0.0072196117
