5-feedforward_neural_network_with_pytorch/feedforward_neural_network_pytorch_sigmoid_mnist.pkl (torch, 319695 bytes, 4 tensors)

fc1.weight f4 [100, 784]
-0.010569168 0.010224886 0.009985752 0.013695147 0.03463174 0.018660758 0.0031305924 -0.026411973
0.0035724714 -0.005041199 0.03483903 0.02434551 0.00794232 -0.022979543 0.02079184 0.0061200634
0.021688018 0.03244071 -0.000842154 -0.019447941 -0.002192337 -0.026763275 0.028897557 0.028553996
0.0046276264 -0.025061911 0.022451252 -0.014143871 0.004111994 0.019291364 -0.035132475 0.0037209354
0.025161223 -0.020943297 0.008301374 -0.001578858 -0.0038523574 0.03275747 -0.024446743 -0.000717925
0.019007385 0.018391958 -0.025398402 -0.0096470155 0.0049890876 -0.0005915621 0.0125943 0.007867004
0.025104955 0.030236073 -0.007377688 -0.0059432588 -0.0044554733 0.0039247572 -0.021238456 -0.0017975532
-0.012963712 -0.010699801 0.019317158 -0.0054286825 -0.029908827 -0.00943993 -0.031814963 -0.0016825416
0.022944136 -0.004129146 0.027801367 -0.03688095 0.0044693896 -0.021606289 -0.012901176 -0.0030092213
0.012907817 -0.027671792 -0.0068297284 0.025096716 0.019662501 -0.0070497016 -0.026710032 -0.009862285
-0.008715474 -0.0023240473 -0.031849142 0.0009667054 0.028480109 -0.032517936 0.028869282 -0.028988678
-0.009876794 -0.017608255 0.011894768 0.00074360496 0.009152819 0.01649837 -0.0012753177 -0.030950533
0.031534325 -0.012319805 0.009798154 0.020120973 -0.03664374 -0.05256766 -0.05292503 -0.043501854
-0.020976104 0.0013501581 0.006538339 -0.018467134 -0.026902594 -0.03029132 -0.032739613 -0.0020562187
0.002785258 -0.010037023 0.011526318 -0.029597191 0.011473274 0.020521332 -0.025363853 -0.0037949749
0.0063472465 0.02101323 0.0037277045 0.029767975 0.02708053 0.02332221 0.01873613 -0.0027829069
-0.029035468 -0.019318236 -0.025248118 -0.025983883 -0.048019588 0.0010056343 -0.018305032 -0.026161278
0.021235876 -0.01610056 0.0119125275 0.008792582 0.011565004 -0.018210817 -0.021272633 -0.028673343
0.017773474 -0.02080935 -0.018126873 0.017830288 0.028948363 -0.023402805 0.0448681 -0.0042635933
0.019983713 0.015354946 0.0077775805 0.03177779 0.0059106844 -0.03160196 -0.021787547 0.009602774
0.018408218 0.020819673 -0.0132649895 -0.039006844 -0.026682675 0.015105992 -0.033729326 0.033323508
-0.0023087077 -0.029434724 0.0075497357 0.00024857503 -0.026051965 -0.007927143 -0.008910365 -0.009602986
0.029694006 0.02458173 0.017831864 0.009227807 0.05762001 0.07107803 0.047133338 -0.01876165
-0.049637057 -0.022268306 -0.05986692 -0.021830508 -0.00011778214 0.016114123 -0.041230273 -0.032768164
-0.022738932 0.02068463 -0.013394809 0.00076775125 -0.020425754 0.031133184 0.03224169 -0.0010092268
0.03412686 0.047450017 0.041134056 0.0037636033 0.019221006 0.014350232 0.043831203 0.070446245
0.035871238 0.088088036 0.06250387 0.046076667 -0.032195393 -0.028650403 -0.014004438 0.035815217
0.040332705 0.00072668836 -0.042441484 -0.002593493 -0.015565473 -0.030414738 0.027183134 -0.014268704
-0.010790314 0.01788698 0.015370516 0.02955796 0.046272576 0.044708245 0.026928568 0.014699738
0.0028947038 0.0017732356 0.02583028 0.046844643 0.08480183 0.08300241 0.09630668 0.07218592
0.061301064 0.020101476 -0.010544103 0.04180474 -0.028886238 0.009927079 0.0020668907 -0.009887914
-0.030447997 0.016610214 -0.03551671 -0.008058871 -0.0019153111 -0.013693816 0.0062091905 0.015647454
00000000: 4e2a 2dbc 4886 273c 489b 233c 9c61 603c
00000010: 03da 0d3d 72de 983c a02a 4d3b ec5d d8bc
00000020: 2020 6a3b a430 a5bb 5fb3 0e3d 3c70 c73c
00000030: 8120 023c 983f bcbc a653 aa3c d08a c83b
00000040: 12ab b13c 8de0 043d 00c4 5cba 4a51 9fbc
00000050: 50ad 0fbb a83e dbbc 92ba ec3c 12ea e93c
00000060: 58a3 973b a34e cdbc b0eb b73c b2bb 67bc
00000070: e8bd 863b ec08 9e3c 12e7 0fbd f0da 733b
00000080: e91e ce3c 4791 abbc 7c02 083c aff1 ceba
00000090: d577 7cbb b22c 063d 8944 c8bc 2233 3cba
000000a0: 60b5 9b3c bbaa 963c 4f10 d0bc 840e 1ebc
000000b0: 807b a33b 0f13 1bba 5358 4e3c 9be4 003c
000000c0: e8a8 cd3c a4b1 f73c 88c0 f1bb abbf c2bb
000000d0: 38ff 91bb 409b 803b 45fc adbc e09b ebba
000000e0: c065 54bc 384e 2fbc 043f 9e3c 17e3 b1bb
000000f0: 5b03 f5bc f0a9 1abc 6850 02bd ba88 dcba
00000100: 57f5 bb3c ca4d 87bb b1bf e33c 7b10 17bd
00000110: f573 923b acff b0bc 745f 53bc 5b36 45bb
00000120: 4f7b 533c f4af e2bc eacb dfbb a197 cd3c
00000130: 4113 a13c 2f01 e7bb ffce dabc 6c95 21bc
00000140: 59cb 0ebc 0b4f 18bb 3f74 02bd 806a 7d3a
00000150: 1e4f e93c 8731 05bd 467f ec3c aa79 edbc
00000160: 47d2 21bc 303f 90bc 46e2 423c 7cee 423a
00000170: b5f5 153c 9727 873c 9028 a7ba f98b fdbc
00000180: 232a 013d 02d9 49bc 7088 203c bdd4 a43c
00000190: bf17 16bd 3051 57bd ebc7 58bd 002f 32bd
000001a0: 14d6 abbc caf7 b03a 903f d63b 6348 97bc
000001b0: d462 dcbc 8125 f8bc f919 06bd a0c1 06bb
000001c0: e088 363b 5372 24bc e2d8 3c3c cf75 f2bc
000001d0: 66fa 3b3c 5a1c a83c dbc7 cfbc 1db5 78bb
000001e0: 90fc cf3b f023 ac3c 814c 743b f8db f33c
000001f0: fdd7 dd3c 380e bf3c 837c 993c 6e61 36bb
00000200: cadb edbc 4741 9ebc 24d5 cebc 27dc d4bc
00000210: 30b0 44bd 7dcf 833a 6ff4 95bc 2d50 d6bc
00000220: dcf6 ad3c 52e5 83bc c32c 433c c30e 103c
00000230: 247b 3d3c da2e 95bc f243 aebc 5ce4 eabc
00000240: ad99 913c 5f78 aabc cf7e 94bc d310 923c
00000250: 1e25 ed3c 3db7 bfbc 9dc7 373d 9db5 8bbb
00000260: e2b4 a33c 5093 7b3c 13db fe3b 6e29 023d
00000270: 6aae c13b 0f71 01bd cc7b b2bc f454 1d3c
00000280: d5cc 963c 058e aa3c 6655 59bc a4c5 1fbd
00000290: a095 dabc 1f7f 773c c327 0abd 3b7e 083d
000002a0: b04d 17bb 1721 f1bc c663 f73b 2d53 8239
000002b0: ee6a d5bc d9e0 01bc c8fc 11bc d855 1dbc
000002c0: d840 f33c a05f c93c 2114 923c 3a30 173c
000002d0: f602 6c3d 5c91 913d e30e 413d 08b2 99bc
000002e0: 3a50 4bbd 066c b6bc 0437 75bd e5d5 b2bc
000002f0: ce01 f7b8 c401 843c 13e1 28bd e937 06bd
00000300: ff46 babc d072 a93c e775 5bbc ea42 493a
00000310: e953 a7bc 050b ff3c dd0f 043d 0848 84ba
00000320: 9bc8 0b3d f35a 423d 2f7c 283d c9a6 763b
00000330: 5f75 9d3c 3c1d 6b3c 5988 333d 1f46 903d
00000340: b8ed 123d 8067 b43d 0702 803d e3ba 3c3d
00000350: 51df 03bd 40b4 eabc df72 65bc fab2 123d
00000360: e833 253d 3b7f 3e3a 1fd7 2dbd 98f7 29bb
00000370: 5306 7fbc 5428 f9bc 2aaf de3c 48c7 69bc
00000380: dbc9 30bc b787 923c 9ed4 7b3c 8923 f23c
00000390: 5088 3d3d fe1f 373d 4d99 dc3c 2bd7 703c
000003a0: 12b5 3d3b ea6b e83a 069a d33c 2be0 3f3d
000003b0: 95ac ad3d 2bfd a93d 703c c53d 36d6 933d
000003c0: d316 7b3d daab a43c 2cc1 2cbc 723b 2b3d
000003d0: d5a2 ecbc 30a5 223c ac74 073b eb00 22bc
000003e0: 146e f9bc 2512 883c f879 11bd 5b09 04bc
000003f0: 2d0b fbba 075c 60bc 7776 cb3b 172f 803c

fc1.bias f4 [100]
-0.013457347 -0.04421924 0.11897495 -0.09036139 -0.032877382 0.0065946905 0.032256804 -0.0021592025
-0.036037788 -0.00015669366 0.022890199 -0.012102861 0.0074781324 0.03559467 -0.017462905 -0.04149421
0.055001147 0.08767995 0.10902725 -0.024889724 -0.02758188 -0.022320338 -0.021129522 -0.070395984
0.035311118 0.03910175 0.12224925 -0.074730836 -0.050647564 -0.024827495 0.021509392 -0.024989394
-0.064741 -0.087749146 0.049925454 -0.06674232 0.046551783 0.0959571 0.017457185 -0.067370795
0.054714777 -0.063743025 0.11592193 0.04141948 -0.029234031 0.015413017 0.027352978 0.053778745
0.0012265973 -0.023176452 -0.021695733 0.022946902 0.045515943 -0.040133998 -0.013983013 0.048032742
0.028108003 0.042476516 -0.042050608 -0.059471138 0.054427527 0.09214919 -0.033726383 -0.034648113
-0.06262699 0.0046139467 -0.022018319 0.03240763 0.019286882 0.04108441 0.022378348 -0.022555213
-0.039788432 -0.037903793 0.0413449 -0.069457926 0.089704506 -0.11031613 -0.06341446 0.054573867
0.07163823 0.023547763 -0.00549011 -0.02237335 0.05629118 -0.008020015 -0.015775103 -0.039929602
-0.07729617 0.067639366 0.0650978 -0.0012704836 0.094629556 0.04924665 -0.11774071 -0.0065084947
-0.024146097 0.03898649 0.027031567 -0.024118444
00000000: 347c 5cbc 3c1f 35bd 23a9 f33d 640f b9bd
00000010: 6faa 06bd 4618 d83b b61f 043d 6881 0dbb
00000020: 5c9c 13bd 224e 24b9 3a84 bb3c 144b 46bc
00000030: 1f0b f53b b7cb 113d 5e0e 8fbc d5f5 29bd
00000040: e248 613d 8c91 b33d ae49 df3d 89e5 cbbc
00000050: 65f3 e1bc 24d9 b6bc d217 adbc c52b 90bd
00000060: 64a2 103d 2829 203d d15d fa3d 7b0c 99bd
00000070: d273 4fbd 0863 cbbc 7734 b03c 8fb6 ccbc
00000080: ee96 84bd d3b5 b3bd a27e 4c3d 33b0 88bd
00000090: 15ad 3e3d 2885 c43d 5f02 8f3c b3f9 89bd
000000a0: 9a1c 603d b48b 82bd 7a68 ed3d 79a7 293d
000000b0: 357c efbc e186 7c3c 5a13 e03c 1a47 5c3d
000000c0: c7c5 a03a 8bdc bdbc 40bb b1bc 24fb bb3c
000000d0: ed6e 3a3d 8c63 24bd 0219 65bc fbbd 443d
000000e0: c142 e63c dbfb 2d3d 423d 2cbd 0298 73bd
000000f0: 66ef 5e3d b7b8 bc3d ad24 0abd 2eeb 0dbd
00000100: 9442 80bd 9730 973b c35f b4bc ddbd 043d
00000110: 86ff 9d3c 2048 283d cc52 b73c b6c5 b8bc
00000120: 32f9 22bd 0241 1bbd 4559 293d f53f 8ebd
00000130: ffb6 b73d 6ced e1bd 71df 81bd d988 5f3d
00000140: 10b7 923d 3de7 c03c 61e6 b3bb 5148 b7bc
00000150: 9591 663d 6266 03bc ca3a 81bc 398d 23bd
00000160: 744d 9ebd 8286 8a3d ff51 853d 5b86 a6ba
00000170: 24cd c13d dbb6 493d 0b22 f1bd 3645 d5bb
00000180: 09ce c5bc 4cb0 1f3d 4e71 dd3c 0b94 c5bc

fc2.weight f4 [10, 100]
-0.41843733 -0.09047636 -0.16926624 0.09620376 0.37525192 0.6581283 -0.31847337 0.3680319
-0.6062192 0.5248361 0.7030566 0.5824847 0.01802917 -0.20868334 -0.5954152 -0.24158499
0.25573513 -0.05815546 0.25133514 0.030102672 0.58368826 0.082982495 0.009336238 -0.22695473
-0.42237467 -0.49243456 0.09203283 0.031073838 0.5441996 -0.5714626 0.23113437 -0.17815983
-0.1913539 0.27348638 -0.14600609 -0.3435987 0.05966766 -0.56402457 0.53122807 -0.65059054
-0.08135022 -0.35898763 -0.7012214 -0.32158965 0.46448258 0.49427035 -0.5295938 -0.50497544
-0.409977 0.31595105 0.1475122 0.32166752 0.19236462 -0.2882268 0.40706363 -0.16429543
-0.6487333 -0.43025702 -0.38735247 -0.28159848 0.38660306 0.010444096 0.35197553 -0.13504815
-0.61267006 -0.50220025 0.42591658 0.28598845 -0.40441087 0.24379352 -0.18352392 0.30843157
-0.5275609 0.23854217 -0.3010898 -0.37951753 0.28952256 0.42419744 -0.47251552 -0.39530143
0.30900425 0.22378819 -0.36709374 0.45639494 -0.47723657 -0.3128054 -0.23056956 -0.22136004
0.47044486 0.5502704 -0.10581754 -0.5293367 0.15999675 -0.5182781 0.17844027 0.0780641
0.6156364 0.53133184 -0.24855478 0.33346298 0.7351931 -0.07163115 0.26251778 -0.68243283
-0.44830313 -0.28611517 0.3944683 -0.25053173 0.25424814 0.15874086 -0.35045177 -0.322335
0.14102568 0.4229771 0.43549418 -0.2161618 -0.34331602 0.7489619 -0.11817068 -0.56902534
-0.488695 0.051432535 -0.3480074 0.18669814 0.4113991 -0.37824443 0.3039126 -0.4129411
-0.21970077 0.4931593 -0.29308882 -0.13289978 0.13455959 -0.61210537 0.37157506 0.13846323
0.56176037 0.6143652 0.03548012 0.107659966 0.39505386 -0.059870563 0.13002308 0.06813254
0.35418105 -0.32425743 -0.22270039 0.42387596 0.021904934 0.24384749 0.10127659 -0.2973262
-0.49341902 -0.33531225 -0.6705851 -0.17080522 0.28803313 0.043868147 -0.3179494 -0.13674013
-0.5537646 0.5938231 -0.26264036 0.4729005 0.06675334 0.3421146 -0.18056746 -0.05181221
0.38248605 0.3437987 0.61900955 -0.7063682 0.3510721 -0.012422074 0.20837231 -0.34032005
0.22092351 -0.18283139 -0.020727571 0.3175137 0.4168898 -0.35902837 -0.19301137 0.20750397
0.77231944 -0.17215423 -0.09319154 -0.17871563 -0.60718405 -0.1880363 0.467456 0.72175723
-0.33635435 0.201859 -0.61162955 0.357249 -0.37595484 -0.2902654 -0.27078205 0.3433991
0.39405292 -0.05739584 -0.39341518 0.10884544 0.62531626 -0.19841103 0.25907362 -0.0731177
0.434123 -0.17406194 0.66288203 -0.3341682 -0.3407151 0.25081947 0.15397912 0.3319465
-0.090956606 -0.15181562 -0.7350106 0.19223028 0.07292662 -0.10121806 -0.39817828 0.48949358
-0.33004928 -0.5029854 0.05035396 -0.21493739 -0.10452733 0.26920035 -0.615007 0.39479005
-0.14532772 0.25157946 -0.32804942 -0.23651172 0.17124113 -0.12495242 -0.3432015 0.088012725
-0.2649812 -0.16999227 -0.6093302 -0.49204084 -0.12813847 -0.14584252 0.23487139 -0.42347
-0.19991384 -0.32937595 0.6128947 -0.5547188 -0.42841855 0.2624679 0.0485089 -0.36503005
00000000: 6b3d d6be ab4b b9bd 2154 2dbe 7a06 c53d
00000010: 0521 c03e 197b 283f f10e a3be ad6e bc3e
00000020: 2e31 1bbf a95b 063f 84fb 333f b81d 153f
00000030: e9b1 933c 16b1 55be 216d 18bf 0e62 77be
00000040: b7ef 823e 6b34 6ebd 00af 803e e199 f63c
00000050: 986c 153f baf2 a93d 05f7 183c d266 68be
00000060: 7e41 d8be 6220 fcbe b57b bc3d 908e fe3c
00000070: aa50 0b3f 5f4b 12bf 7dae 6c3e 886f 36be
00000080: 47f2 43be 6806 8c3e 9f82 15be 2bec afbe
00000090: 1466 743d ea63 10bf 90fe 073f 1a8d 26bf
000000a0: f29a a6bd 3acd b7be 3f83 33bf 66a7 a4be
000000b0: a9d0 ed3e 0111 fd3e 7693 07bf 1246 01bf
000000c0: 81e8 d1be 56c4 a13e 700d 173e 9bb1 a43e
000000d0: 3bfb 443e 7792 93be a56a d03e 103d 28be
000000e0: 6313 26bf a64a dcbe 1053 c6be ad2d 90be
000000f0: d6f0 c53e b71d 2b3c 2336 b43e 104a 0abe
00000100: f2d7 1cbf 3290 00bf bd11 da3e 146d 923e
00000110: f10e cfbe 02a5 793e b2ed 3bbe beea 9d3e
00000120: 3b0e 07bf 6644 743e 7128 9abe 1f50 c2be
00000130: 4d3c 943e 6830 d93e 8eed f1be f364 cabe
00000140: ce35 9e3e bb28 653e b6f3 bbbe 99ac e93e
00000150: 5a58 f4be 0828 a0be 6d1a 6cbe 35ac 62be
00000160: 26de f03e 85de 0c3f deb6 d8bd 9c82 07bf
00000170: 30d6 233e e0ad 04bf 0cb9 363e 12e0 9f3d
00000180: 599a 1d3f 5d05 083f 2585 7ebe a9bb aa3e
00000190: 9d35 3c3f 5ab3 92bd bb68 863e ebb3 2ebf
000001a0: fd87 e5be b07d 92be c0f7 c93e b245 80be
000001b0: d02c 823e f78c 223e 6a6e b3be 1809 a5be
000001c0: 0969 103e 7490 d83e 18f9 de3e 8559 5dbe
000001d0: 1ec7 afbe f8bb 3f3f 7803 f2bd a5ab 11bf
000001e0: 3b36 fabe ecaa 523d 072e b2be cc2d 3f3e
000001f0: e7a2 d23e 41a9 c1be 6f9a 9b3e 046d d3be
00000200: 3df9 60be 607f fc3e bd0f 96be e116 08be
00000210: fdc9 093e f0b2 1cbf 163f be3e 4ec9 0d3e
00000220: 87cf 0f3f 0a47 1d3f 9a53 113d d47c dc3d
00000230: 8044 ca3e d63a 75bd c524 053e 1389 8b3d
00000240: 3857 b53e 1205 a6be 920b 64be 4506 d93e
00000250: fa71 b33c 28b3 793e 1a6a cf3d 243b 98be
00000260: 6ba1 fcbe 0cae abbe 77ab 2bbf 90e7 2ebe
00000270: 1479 933e 16af 333d 44ca a2be 9b05 0cbe
00000280: 84c3 0dbf ca04 183f cc78 86be 0420 f23e
00000290: fab5 883d a529 af3e ade6 38be 0a39 54bd
000002a0: 36d5 c33e 6206 b03e 6977 1e3f 8cd4 34bf
000002b0: b9bf b33e f485 4bbc 8d5f 553e 6e3e aebe
000002c0: c639 623e 2738 3bbe decc a9bc 2891 a23e
000002d0: 9472 d53e 91d2 b7be c6a4 45be ec7b 543e
000002e0: bab6 453f 3349 30be 35db bebd 3b01 37be
000002f0: 6a70 1bbf 968c 40be 6556 ef3e 15c5 383f
00000300: a336 acbe 20b4 4e3e c193 1cbf 57e9 b63e
00000310: 277d c0be ab9d 94be f2a3 8abe 02d2 af3e
00000320: 4ec1 c93e e617 6bbd b76d c9be 5cea de3d
00000330: ba14 203f 432c 4bbe 4ca5 843e bcbe 95bd
00000340: 5f45 de3e 4b3d 32be a3b2 293f 1818 abbe
00000350: 3672 aebe 696b 803e b4ac 1d3e e4f4 a93e
00000360: 7547 babd 8e75 1bbe a829 3cbf 04d8 443e
00000370: 8d5a 953d 6a4b cfbd 06de cbbe e79e fa3e
00000380: 38fc a8be a7c3 00bf f43f 4e3d 8c18 5cbe
00000390: 6d12 d6bd a1d4 893e 1971 1dbf ec21 ca3e
000003a0: cad0 14be 06cf 803e 18f6 a7be 2130 72be
000003b0: d659 2f3e 0ee7 ffbd 1bb8 afbe 0440 b43d
000003c0: 9eab 87be 7412 2ebe 10fd 1bbf c7ec fbbe
000003d0: bb36 03be be57 15be 2082 703e 0fd1 d8be
000003e0: 37b6 4cbe f7a3 a8be abe6 1c3f 0d02 0ebf
000003f0: ad59 dbbe 3162 863e 45b1 463d 38e5 babe

fc2.bias f4 [10]
0.046722982 -0.123996384 -0.054511607 0.13033451 -0.035126664 0.0150876 -0.102471955 -0.015112798
-0.06879794 -0.058399465
00000000: 9960 3f3d d1f1 fdbd 9047 5fbd 6976 053e
00000010: fae0 0fbd fb31 773c d1dc d1bd ab9b 77bc
00000020: efe5 8cbd 4734 6fbd
