5-feedforward_neural_network_with_pytorch/feedforward_neural_network_pytorch_tanh_mnist.pkl (torch, 319695 bytes, 4 tensors)

fc1.weight f4 [100, 784]
0.01618085 -0.0028372034 -0.025172025 -0.021608064 0.014229555 -0.02284959 0.011607293 -0.03054266
-0.032248408 -0.011410266 0.013002578 0.011686232 0.0047591673 0.018662559 -0.026353933 -0.026184388
-0.011054145 0.008551154 0.014203109 -0.025746947 0.024018373 0.035650294 0.032750424 0.028564367
-0.0068345536 -0.034573294 0.010637559 0.022825856 0.028019723 0.0048915967 -0.01600974 -0.016170163
0.024999928 -0.0045162644 0.003929264 0.0106591 -0.031683672 -0.003960254 0.008713599 0.028320579
0.01584821 -0.0008385353 0.025122587 -0.029172985 -0.02276362 -0.0028160298 0.0129341325 0.014283747
0.03244937 -0.014872192 -0.027036833 0.016800033 0.017759427 -0.029763466 0.02593907 0.019169506
0.026002303 -0.006175071 -0.0319135 0.015778046 0.023088071 -0.0033088382 0.0072171614 -0.019902095
0.00082210905 -0.026789302 0.008978859 0.0018541384 0.027508028 0.019956121 0.009548063 -0.019252617
0.03453452 0.0001714405 -0.018091427 0.018436654 -0.022618357 0.027245924 0.01802555 -0.024161844
-0.028635258 0.01841298 0.0337633 0.012903243 -0.010764509 0.00027575344 0.027643641 -0.020874564
0.024022564 0.025805771 0.026530694 0.0024565947 -0.03443025 -0.02339738 0.0068552536 -0.04616578
-0.03031354 -0.0015479446 -0.0018193692 -0.0033056636 -0.013201809 -0.012502591 -0.0074177417 0.0015687792
-0.012514351 -0.026524559 0.0253532 0.026911989 0.023663307 -0.011114427 0.012939799 0.018891685
0.010612637 0.01954715 -0.034510683 -0.017677538 0.003763714 0.00357305 0.018179642 -0.009447444
-0.017629711 -0.03854492 -0.020931387 -0.013778577 -0.04089702 -0.025448946 0.004237166 0.01970976
0.0021845137 -0.003968936 0.003461797 0.030518387 -0.00846181 0.031185417 0.022729049 -0.020154065
0.015403836 0.0008987784 -0.007924152 -0.026472928 0.01955111 -0.0033130683 0.026969621 0.025910817
0.0067957425 -0.032755826 0.0042483043 0.02330296 0.0054336702 -0.003340005 -0.04601063 -0.05521105
0.00051063596 -0.027527262 0.01831303 -0.0227283 0.0051783454 0.027035085 0.04457712 0.051736884
-0.014451242 -0.020490712 0.0275636 0.013119937 -0.020745024 -0.0020917016 -0.035369996 -0.003682132
0.027261343 -0.00996379 -0.0062502595 -0.010556396 0.00078854605 0.02170533 -0.022736873 -0.0417606
-0.015817799 -0.026563862 -0.065695 -0.067190036 -0.010763232 -0.029593224 -0.011987792 0.076821215
0.01287174 0.006054793 0.03408913 0.016603258 0.050088212 -0.007736679 -0.03549768 -0.013082687
-0.0145335905 0.015730886 0.015674938 -0.0013692454 -0.01823604 0.02192114 0.012366848 0.014700609
-0.012062984 0.018600004 -0.038039032 -0.07054763 -0.07679014 -0.050845344 -0.06364479 -0.0792268
-0.06230935 -0.046590514 -0.012606586 0.029438635 0.01510201 0.007827157 -0.010033733 -0.032914586
-0.034938373 -0.05502586 -0.039513815 0.008062747 -0.0048824367 -0.0013270739 0.027523693 0.03372304
0.012657353 0.02124665 -0.0011916573 0.0097076455 -0.005586021 -0.048599366 -0.030447623 -0.055305164
-0.060661748 -0.04256073 -0.10878124 -0.094672166 -0.061741535 -0.04922758 -0.048227385 -0.024229415
-0.061399344 -0.08171788 -0.073545374 -0.09005301 -0.042734172 -0.029817797 -0.042190347 -0.025981413
-0.0035375378 0.024171265 0.0249081 0.024488525 -0.030286592 0.02525666 0.007978697 -0.0006758208
00000000: b48d 843c 60f0 39bb 9035 cebc 6503 b1bc
00000010: 1423 693c 102f bbbc 842c 3e3c 9a34 fabc
00000020: e816 04bd 20f2 3abc c408 553c 9c77 3f3c
00000030: caf2 9b3b 39e2 983c 34e4 d7bc a480 d6bc
00000040: 721c 35bc 241a 0c3c 28b4 683c 43eb d2bc
00000050: 2ec2 c43c 0b06 123d 4f25 063d d2ff e93c
00000060: 64f4 dfbb ba9c 0dbd 2849 2e3c 4afd ba3c
00000070: 9e89 e53c b049 a03b dc26 83bc 4a77 84bc
00000080: a6cc cc3c 2cfd 93bb 0ec1 803b 81a3 2e3c
00000090: bdc6 01bd 05c5 81bb 7cc3 0e3c 8f00 e83c
000000a0: 1bd4 813c 27d1 5bba e2cd cd3c 2ffc eebc
000000b0: c57a babc 248d 38bb afe9 533c 6106 6a3c
000000c0: a1e9 043d 7faa 73bc 597c ddbc 39a0 893c
000000d0: 387c 913c 83d2 f3bc 2c7e d43c 5e09 9d3c
000000e0: c802 d53c 4058 cabb bbb7 02bd f640 813c
000000f0: 3223 bd3c 18d9 58bb f07d ec3b b809 a3bc
00000100: ce82 573a 3d75 dbbc 101c 133c 9006 f33a
00000110: 8458 e13c 057b a33c 7b6f 1c3c aab7 9dbc
00000120: 1274 0d3d b5c4 3339 7934 94bc 7708 973c
00000130: 224a b9bc d832 df3c 51aa 933c 0fef c5bc
00000140: 7d94 eabc d1d6 963c 634b 0a3d 2068 533c
00000150: a05d 30bc 0093 9039 eb74 e23c 2201 abbc
00000160: f8ca c43c a066 d33c e656 d93c d2fe 203b
00000170: bc06 0dbd ddab bfbc 09a2 e03b 5418 3dbd
00000180: 1a54 f8bc 67e4 caba e677 eeba d5a3 58bb
00000190: 664c 58bc abd7 4cbc 8710 f3bb 7f9f cd3a
000001a0: fe08 4dbc 084a d9bc 84b1 cf3c 8876 dc3c
000001b0: 8dd9 c13c 4919 36bc 7301 543c bcc2 9a3c
000001c0: a0e0 2d3c 5821 a03c 135b 0dbd 7cd0 90bc
000001d0: a5a8 763b d529 6a3b 79ed 943c 74c9 1abc
000001e0: 2f6c 90bc 47e1 1dbd 4d78 abbc 8abf 61bc
000001f0: a283 27bd 4f7a d0bc edd7 8a3b 5d76 a13c
00000200: 0f2a 0f3b d90d 82bb 51df 623b b201 fa3c
00000210: 67a3 0abc 8f78 ff3c 4532 ba3c 231a a5bc
00000220: 5f60 7c3c ff9b 6b3a 4dd4 01bc c1dd d8bc
00000230: a629 a03c 1020 59bb 65ef dc3c ec42 d43c
00000240: d2ae de3b f92a 06bd 5c35 8b3b d9e5 be3c
00000250: ee0c b23b fce3 5abb a475 3cbd fb24 62bd
00000260: 33dc 053a da80 e1bc 3505 963c b330 babc
00000270: 1caf a93b af78 dd3c 8096 363d 0eea 533d
00000280: e7c4 6cbc 23dc a7bc 0fcd e13c 01f5 563c
00000290: 78f1 a9bc ee14 09bb 21e0 10bd ed4f 71bb
000002a0: 2e53 df3c 2a3f 23bc face ccbb bcf4 2cbc
000002b0: 6eb6 4e3a 60cf b13c ae42 babc 2a0d 2bbd
000002c0: 5494 81bc 759c d9bc 1a8b 86bd ee9a 89bd
000002d0: 4458 30bc 7d6d f2bc 7268 44bc 7154 9d3d
000002e0: fee3 523c 4967 c63b 0ba1 0b3d 8e03 883c
000002f0: 4c29 4d3d f883 fdbb 0466 11bd c458 56bc
00000300: 4c1e 6ebc 0fde 803c ba68 803c 4078 b3ba
00000310: bf63 95bc f693 b33c 529e 4a3c d3da 703c
00000320: d2a3 45bc 095f 983c d1ce 1bbd 477b 90bd
00000330: 2644 9dbd 3543 50bd 3358 82bd a941 a2bd
00000340: 1738 7fbd b2d5 3ebd db8b 4ebc 4b29 f13c
00000350: 6c6e 773c 7a3d 003c 8764 24bc 72d1 06bd
00000360: 8a1b 0fbd cc62 61bd 3dd9 21bd 9d19 043c
00000370: d9fc 9fbb 36f1 adba 5e79 e13c 2c21 0a3d
00000380: c960 4f3c 740d ae3c 6231 9cba d10c 1f3c
00000390: f10a b7bb 2110 47bd 4b6d f9bc ab87 62bd
000003a0: 7478 78bd 2954 2ebd b3c8 debd 7be3 c1bd
000003b0: b1e4 7cbd dca2 49bd 148a 45bd c47c c6bc
000003c0: e17d 7bbd b45b a7bd f59e 96bd b66d b8bd
000003d0: 070a 2fbd 7444 f4bc c9cf 2cbd f9d6 d4bc
000003e0: 09d6 67bb d102 c63c 120c cc3c 299c c83c
000003f0: 961b f8bc 0ee7 ce3c 15b9 023c 9129 31ba

fc1.bias f4 [100]
-0.117077194 -0.10303045 0.18521103 0.05933615 0.0080112275 0.007913217 0.042322654 -0.11337945
-0.041778456 -0.063513 -0.10850164 0.07730636 0.07846992 -0.12578256 -0.18991558 0.1005638
-0.10192012 -0.20855966 0.17170465 -0.03313327 -0.20973562 0.023761407 0.04113949 -0.17097248
-0.015927954 0.28123719 -0.048197314 -0.09612105 -0.06882761 -0.111817814 0.09833311 0.030729877
-0.051013596 -0.0048421016 -0.13845353 0.16215153 -0.13283983 -0.0057297917 -0.022982981 0.08264185
0.010695446 0.078348346 0.01562996 0.021856943 0.055770412 0.005590373 -0.036597397 -0.032162
-0.0042274236 -0.07525509 -0.14440817 0.059446108 -0.016148614 -0.10124385 -0.19051185 -0.11094077
-0.02519635 -0.031222885 -0.1161699 -0.12581296 0.10243318 0.038548134 -0.083930545 0.058097694
0.1134613 -0.10460836 -0.0073002772 0.1138053 0.01843074 -0.18196873 0.06598376 0.053830616
-0.09279557 0.05800581 0.015875956 -0.076749176 -0.0458701 -0.0048112487 0.24300486 0.041923482
0.075033575 0.0288745 0.008789341 -0.036479887 -0.03670876 -0.00448226 -0.13022697 -0.053107448
-0.30031282 0.07645697 -0.07530417 0.033201184 0.12196384 -0.021703256 0.022584084 -0.01607319
0.019068383 0.19306123 -0.09411188 -0.0417615
00000000: 2bc6 efbd a101 d3bd f6a7 3d3e 760a 733d
00000010: 8641 033c 70a6 013c 855a 2d3d 7c33 e8bd
00000020: e31f 2bbd 1b13 82bd 1c36 debd cc52 9e3d
00000030: d6b4 a03d 25cd 00be 3b79 42be 65f4 cd3d
00000040: 7fbb d0bd aa90 55be 58d3 2f3e c0b6 07bd
00000050: efc4 56be 48a7 c23c e281 283d 6913 2fbe
00000060: 577b 82bc 52fe 8f3e 8c6a 45bd 1ddb c4bd
00000070: 7df5 8cbd bd00 e5bd df62 c93d 39bd fb3c
00000080: a2f3 50bd 7eaa 9ebb c3c6 0dbe 0d0b 263e
00000090: 2a07 08be fac0 bbbb ce46 bcbc 2140 a93d
000000a0: f43b 2f3c 1975 a03d 670a 803c 550d b33c
000000b0: 846f 643d 732f b73b 27e7 15bd 4dbc 03bd
000000c0: 3386 8abb 571f 9abd bcdf 13be c37d 733d
000000d0: 194a 84bc f058 cfbd 8a15 43be ea34 e3bd
000000e0: 9368 cebc 23c7 ffbc 7cea edbd 1dd5 00be
000000f0: 7dc8 d13d a6e4 1d3d c7e3 abbd d9f7 6d3d
00000100: 665e e83d e83c d6bd 2a37 efbb c112 e93d
00000110: 10fc 963c 0356 3abe 7e22 873d 7e7d 5c3d
00000120: 9b0b bebd 8097 6d3d 4b0e 823c ac2e 9dbd
00000130: 49e2 3bbd aea7 9dbb 44d6 783e f5b7 2b3d
00000140: 34ab 993d 378a ec3c 2b01 103c ef6b 15bd
00000150: ed5b 16bd ecdf 92bb 385a 05be 3287 59bd
00000160: 9ac2 99be 7995 9c3d 1339 9abd f7fd 073d
00000170: 2ec8 f93d 07cb b1bc 4202 b93c ecab 83bc
00000180: 4c35 9c3c d8b1 453e bbbd c0bd 1b0e 2bbd

fc2.weight f4 [10, 100]
-0.038786225 0.17465934 -0.18267055 0.19974156 -0.23098466 -0.35856944 0.15230964 0.35289404
0.19119412 0.036297984 0.292043 -0.4778103 0.2531143 -0.04987978 -0.35307547 0.26622742
-0.29811895 0.24445727 -0.34023872 0.10735651 -0.04431963 -0.28209293 0.051463284 0.01905989
0.08101586 -0.32049763 0.17805998 0.13868488 0.04506625 -0.2672626 -0.15281497 0.16562416
0.11675277 0.28651407 0.16348007 -0.3745945 0.34252703 -0.1041283 0.32796445 -0.12285033
0.061493877 0.12183294 -0.29299882 0.25295934 0.15994997 0.2184017 0.16609459 -0.111393325
0.19249137 -0.09816304 -0.10528457 -0.46129218 0.0082092965 0.38442317 0.2098131 0.40829778
0.08200685 0.3372101 -0.17499922 -0.20149933 -0.22950937 0.14480579 -0.055973835 0.05026446
0.07300476 0.30289936 0.14062613 0.20700191 0.17944807 -0.3563113 -0.22359739 0.2753336
-0.10719102 0.07789968 -0.042833857 0.23497938 -0.21377844 -0.21897888 -0.360597 0.15912119
0.0807395 0.19315596 0.06287948 0.10566151 0.033806376 0.17097566 0.038029123 -0.23027068
0.060208596 0.06428347 -0.23363557 -0.106163435 0.23123181 -0.16691919 0.27320105 0.09103829
-0.22180639 -0.09499134 -0.35995188 -0.2195163 0.04482018 -0.107350476 0.14747304 -0.14761485
-0.13451731 0.3631543 0.09589 -0.32609177 0.35621235 -0.2761812 -0.10030384 0.17475112
-0.07672475 -0.35521936 -0.07763237 -0.023522405 0.027261524 0.02560192 0.21068151 0.2735473
-0.19170024 0.1477349 -0.13739555 0.20769261 -0.07036427 0.055868756 -0.365197 0.13026544
-0.31057954 0.12873837 0.4552448 0.029810641 -0.3963309 0.010119684 0.3571369 0.33208132
-0.29689962 0.085492 -0.4279691 -0.27600664 -0.45993608 0.007660944 0.034994893 -0.2643601
-0.23965524 0.04613828 -0.27832535 -0.11048095 -0.10639552 0.17211056 0.33168986 0.19164859
0.0652617 -0.3947091 -0.35135183 0.2171924 0.10202429 0.34801525 0.062029038 0.19491133
-0.21315658 0.23125224 -0.12533541 -0.33906528 -0.13671954 -0.11389931 0.006765423 0.1611676
-0.2546432 -0.123475194 0.04658354 -0.18633899 0.31604022 -0.0832805 -0.2950651 0.17410058
0.2869522 -0.28633052 0.31140065 -0.35057068 -0.1747616 0.2898252 0.03152604 0.19240624
-0.010434155 -0.1265885 0.23364145 -0.09881988 -0.25089672 0.029643962 0.08852904 0.09046369
0.34578493 0.36191705 -0.34888288 0.050378606 -0.030117037 0.018307123 0.3970551 -0.18464848
-0.4636829 0.22903228 0.22886363 0.21133998 0.46089527 0.28600723 -0.14535415 0.06072161
-0.4928526 -0.47554854 0.25935298 0.063397706 -0.28730032 0.13932551 0.3829382 -0.5019239
0.05109019 0.083790794 0.24765018 0.0059351767 0.34424436 -0.17520508 0.32632506 0.33616593
0.25355697 -0.16463208 0.3594514 0.3562229 0.3635748 0.064008355 -0.22844748 0.47729233
0.3459023 0.07113819 -0.09616547 -0.052301574 0.1495406 0.45854762 0.011484765 -0.16723496
-0.3388472 0.33378544 -0.16213499 0.27941656 0.34547344 0.2679362 -0.26730365 -0.320241
0.21830635 0.35078305 -0.105696395 0.1865625 -0.029613635 0.039390955 -0.2285593 -0.0028884918
00000000: 4ede 1ebd e6d9 323e fd0d 3bbe 0d89 4c3e
00000010: 3e87 6cbe 6a96 b7be 0ff7 1b3e 87ae b43e
00000020: 64c8 433e 32ad 143d a986 953e 8da3 f4be
00000030: 3398 813e bd4e 4cbd 4fc6 b4be f64e 883e
00000040: 0ca3 98be 0253 7a3e c533 aebe bbdd db3d
00000050: 8088 35bd 7c6e 90be 2acb 523d 7d23 9c3c
00000060: a5eb a53d 4418 a4be 5b55 363e 6903 0e3e
00000070: 6397 383d a5d6 88be 877b 1cbe 6199 293e
00000080: 141c ef3d f9b1 923e 5267 273e daca bfbe
00000090: b45f af3e 3841 d5bd f5ea a73e f498 fbbd
000000a0: 01e1 7b3d 8c83 f93d f103 96be e383 813e
000000b0: edc9 233e b2a4 5f3e b314 2a3e 2f22 e4bd
000000c0: 751c 453e b409 c9bd 709f d7bd 7d2e ecbe
000000d0: 4980 063c 1dd3 c43e 3fd9 563e 680c d13e
000000e0: 35f3 a73d cda6 ac3e ff32 33be d755 4ebe
000000f0: 8104 6bbe f847 143e d244 65bd 1be2 4d3d
00000100: 8583 953d a015 9b3e 4c00 103e 4ff8 533e
00000110: 3cc1 373e 6f6e b6be b7f6 64be 87f8 8c3e
00000120: f786 dbbd de89 9f3d 8e72 2fbd 6f9e 703e
00000130: bce8 5abe 003c 60be 2ca0 b8be aaf0 223e
00000140: c05a a53d adca 453e f5c6 803d 1065 d83d
00000150: 8e78 0a3d 3e14 2f3e 6dc4 1b3d 14cc 6bbe
00000160: 4a9d 763d 0da7 833d 2a3e 6fbe 376c d9bd
00000170: 08c8 6c3e ddec 2abe 02e1 8b3e 4872 ba3d
00000180: 3721 63be d28a c2bd 9d4b b8be e2c8 60be
00000190: 5d95 373d 91da dbbd 2c03 173e 5928 17be
000001a0: e8be 09be 5cef b93e fa61 c43d 80f5 a6be
000001b0: 7761 b63e 9f67 8dbe 1a6c cdbd f5f1 323e
000001c0: de21 9dbd 50df b5be b8fd 9ebd 0fb2 c0bc
000001d0: 8f53 df3c 1ebb d13c e5bc 573e 640e 8c3e
000001e0: 114d 44be d147 173e 6bb1 0cbe 5fad 543e
000001f0: 241b 90bd a3d6 643d 1afb babe 4e64 053e
00000200: 4804 9fbe fed3 033e d915 e93e 7235 f43c
00000210: e2eb cabe 08cd 253c a6da b63e 9006 aa3e
00000220: 3a03 98be 6e16 af3d c41e dbbe be50 8dbe
00000230: be7c ebbe a808 fb3b ce56 0f3d 355a 87be
00000240: 2f68 75be 7efb 3c3d a980 8ebe d643 e2bd
00000250: e5e5 d9bd c03d 303e 41d3 a93e 873f 443e
00000260: eda7 853d 5017 cabe 63e4 b3be af67 5e3e
00000270: 1cf2 d03d 0e2f b23e 2912 7e3d d696 473e
00000280: b845 5abe 63cd 6c3e ed57 00be f799 adbe
00000290: 3500 0cbe 0b44 e9bd 7bb0 dd3b 1f09 253e
000002a0: 9860 82be 90e0 fcbd 62ce 3e3d a6cf 3ebe
000002b0: 06d0 a13e f78e aabd c612 97be 6c47 323e
000002c0: 66eb 923e ea99 92be e86f 9f3e 007e b3be
000002d0: b4f4 32be f863 943e 7321 013d 2406 453e
000002e0: 05f4 2abc 6aa0 01be b43f 6f3e 1462 cabd
000002f0: 8975 80be e5d7 f23c b74e b53d 0745 b93d
00000300: b90a b13e 314d b93e c7a0 b2be cc59 4e3d
00000310: 01b8 f6bc d2f8 953c ce4a cb3e 7e14 3dbe
00000320: d867 edbe 7087 6a3e 3a5b 6a3e 8269 583e
00000330: 77fa eb3e 8a6f 923e b8d7 14be 39b7 783d
00000340: 2d57 fcbe 197b f3be eac9 843e a8d6 813d
00000350: 0719 93be 59ab 0e3e 7a10 c43e 167e 00bf
00000360: f243 513d 829a ab3d 0298 7d3e df7b c23b
00000370: cc40 b03e f668 33be 1414 a73e f11d ac3e
00000380: 38d2 813e 5095 28be 040a b83e d962 b63e
00000390: 7a26 ba3e d016 833d 23ee 69be a95f f43e
000003a0: 1b1a b13e e6b0 913d 67f2 c4bd 2d3a 56bd
000003b0: 2c21 193e c1c6 ea3e 992a 3c3c a43f 2bbe
000003c0: 617d adbe ede5 aa3e b706 26be b00f 8f3e
000003d0: e5e1 b03e ef2e 893e 06dc 88be a1f6 a3be
000003e0: b38b 5f3e d699 b33e 5a77 d8bd 3d0a 3f3e
000003f0: 4b98 f2bc 6958 213d 730b 6abe da4c 3dbb

fc2.bias f4 [10]
-0.2965857 0.060479496 0.17978138 -0.10215759 -0.03236577 0.4550451 -0.15680099 0.28797293
-0.5354728 0.041330013
00000000: 15da 97be 59b9 773d 9c18 383e 0038 d1bd
00000010: f891 04bd acfb e83e 7090 20be 3071 933e
00000020: bf14 09bf a949 293d
