5-feedforward_neural_network_with_pytorch/feedforward_neural_network_pytorch_relu_mnist.pkl (torch, 319695 bytes, 4 tensors)

fc1.weight f4 [100, 784]
0.033245835 0.002998639 0.016728476 0.031188335 0.021611352 -0.024905384 0.017521396 -0.014233271
-0.011760959 0.010072134 -0.0010543093 -0.006963322 -0.0007028223 0.025024982 -0.019996116 -0.018894417
0.00095903873 0.031394955 -0.00035471097 -0.023320958 0.007233545 -0.0048842356 0.023033012 0.0093500875
-0.012907535 -0.0310523 0.010979757 0.02505606 0.02155384 -0.005733831 -0.028050922 -0.019049292
0.0038648467 0.0033641523 -0.005270048 -0.0091771595 -0.023240607 -0.021556782 -0.010210402 0.0018859024
-0.027356556 0.017609304 -0.014032303 0.0053952606 -0.027448494 0.020504922 -0.007995117 0.031936456
-0.009056605 -0.016250992 0.018108843 -0.022376668 0.027887408 0.035662573 -0.01624363 0.030001465
-0.018027484 0.02449404 0.011812546 -0.023320012 0.020254636 0.023730958 0.029486015 0.011727164
-0.03516226 0.022185834 0.027681924 -0.030523399 0.003131826 0.01074504 0.009694064 -0.008090133
0.024530971 -0.03796121 -0.015769415 -0.005438067 -0.0005859841 -0.01071678 0.024664955 -0.023313813
0.012903104 -0.013137744 -0.026159674 -0.0060236882 -0.020774255 0.020460289 -0.016255515 0.035521675
0.026595147 0.015855234 0.0047121863 -0.017547565 0.004677735 0.019919796 -0.013181714 0.01888825
0.007106019 -0.009592086 -0.01971991 -0.017940102 0.030161703 0.01857638 0.014898774 0.0057210033
-0.03473349 0.016044177 -0.008339248 -0.00087789935 0.014510164 -0.01209906 -0.0321201 0.010036077
-0.0020244196 0.02797921 0.0025385623 0.023225 -0.031380087 -0.0105623435 -0.007765345 0.04278503
0.04613323 2.6366863e-06 -0.0020246834 -0.004817986 0.015783852 0.049878705 0.01812661 0.056326702
0.014290434 -0.028986031 0.018957805 -0.006430016 -0.042544972 0.021697914 -0.0036566276 -0.0353175
-0.0069237635 0.017644728 -0.00910814 -0.014832868 -0.017156955 0.028194908 -0.032209728 -0.018589044
0.00018874064 0.04778192 -0.00014402617 0.0076994644 0.020760402 0.023197269 0.031846873 0.032644406
0.053580076 0.04581669 0.024725404 0.03070556 0.015677527 0.0062733623 -0.048692703 -0.03341603
-0.04241084 -0.055529304 -0.008964407 -0.014538002 -0.0239855 0.02866792 0.02828108 -0.014883438
0.00446425 -0.00075798674 -0.034982067 -0.015331274 0.033530027 0.014468861 0.026143799 0.010095535
0.023370268 0.0057677575 0.016648324 0.03200141 0.011094855 -0.0005223394 0.04075591 0.016422456
0.023710404 -0.0031260683 -0.011280169 -0.005946324 -0.035512563 0.0028891126 0.033015486 0.0018886446
-0.004851001 -0.011649159 -0.0060319835 0.021769121 0.021706963 0.026663817 0.015492476 0.025447758
0.014021948 0.04102087 0.022979645 -0.040363647 0.005940674 -0.023556992 -0.038711894 -0.04472776
-0.0010729537 -0.021446774 0.021807818 0.01505247 0.010686842 0.013440661 -0.041667078 -0.0072236517
-0.037107594 -0.015857285 -0.031848725 -0.0070524355 0.027329937 0.042901047 0.018556762 0.018453166
-0.018127967 0.032005038 -0.021547554 0.030434739 0.030869052 0.03717657 0.0065119728 -0.026860226
-0.037411515 0.014826566 0.013074811 -0.0359985 0.014266275 -0.03720405 0.023613663 0.013750499
-0.020407503 -0.012222784 -0.02728943 -0.06786074 -0.003316769 -0.027076695 0.01635137 0.015359179
0.025442023 0.04701428 -0.0049027028 0.014697924 -0.023699231 0.0039589936 -0.036664613 0.01249414
00000000: c92c 083d d084 443b 280a 893c ae7e ff3c
00000010: 4a0a b13c 6006 ccbc 0889 8f3c aa32 69bc
00000020: 0ab1 40bc 9805 253c c030 8aba 942c e4bb
00000030: 9b3d 38ba 3101 cd3c e5ce a3bc 77c8 9abc
00000040: 0068 7b3a ff97 003d 80f8 b9b9 980b bfbc
00000050: 6007 ed3b f00b a0bb baaf bc3c 1c31 193c
00000060: 207a 53bc 6561 febc 70e4 333c 5e42 cd3c
00000070: ae91 b03c dce2 bbbb 0ccb e5bc 430d 9cbc
00000080: 5e49 7d3b 1c79 5c3b 5eb0 acbb cc5b 16bc
00000090: 1663 bebc d997 b0bc 8849 27bc 6230 f73a
000000a0: db1a e0bc 6341 903c bfe7 65bc baca b03b
000000b0: aadb e0bc f0f9 a73c f4fd 02bc cdcf 023d
000000c0: 2862 14bc cd20 85bc ff58 943c 464f b7bc
000000d0: 2274 e43c eb12 123d 5c11 85bc a2c5 f53c
000000e0: 60ae 93bc baa7 c83c 6989 413c 9c09 bfbc
000000f0: 0ded a53c 6d67 c23c a88c f13c 4a23 403c
00000100: 4d06 10bd 11bf b53c 34c5 e23c 350c fabc
00000110: 523f 4d3b f70b 303c dad3 1e3c 7a8c 04bc
00000120: 2df5 c83c 377d 1bbd dc2e 81bc d031 b2bb
00000130: ba9c 19ba 6f95 2fbc 290e ca3c 9cfc bebc
00000140: 8a67 533c b13f 57bc d04c d6bc 5c62 c5bb
00000150: c52e aabc 569c a73c 492a 85bc 2d7f 113d
00000160: 11de d93c d6e2 813c af68 9a3b e9bf 8fbc
00000170: af47 993b d72e a33c 1ef8 57bc 88bb 9a3c
00000180: 9cd9 e83b 2028 1dbc a68b a1bc 1ff7 92bc
00000190: ad15 f73c 7e2d 983c fd19 743c 4177 bb3b
000001a0: b444 0ebd 146f 833c 57a1 08bc d422 66ba
000001b0: 0abc 6d3c 233b 46bc 5e90 03bd 5c6e 243c
000001c0: 20ac 04bb a834 e53c 025e 263b 5b42 be3c
000001d0: 6888 00bd ae0d 2dbc 6f74 febb 5b3f 2f3d
000001e0: 33f6 3c3d edf1 3036 8db0 04bb 32e0 9dbb
000001f0: 234d 813c 9d4d 4c3d 427e 943c d4b6 663d
00000200: 6d22 6a3c 1d74 edbc 664d 9b3c e2b2 d2bb
00000210: a343 2ebd d3bf b13c 08a4 6fbb 15a9 10bd
00000220: bde0 e2bb ad8b 903c 4f3a 15bc 8f05 73bc
00000230: be8c 8cbc 02f9 e63c 59ee 03bd 0d48 98bc
00000240: aee8 4539 f9b6 433d bb05 17b9 ca4b fc3b
00000250: b811 aa3c 3308 be3c de71 023d 24b6 053d
00000260: c876 5b3d 48aa 3b3d ee8c ca3c 3a8a fb3c
00000270: 286e 803c c790 cd3b 0072 47bd 3fdf 08bd
00000280: fdb6 2dbd b272 63bd 73df 12bc cd30 6ebc
00000290: 3d7d c4bc fcd8 ea3c b9ad e73c aad9 73bc
000002a0: d848 923b a1b3 46ba 5b49 0fbd 0630 7bbc
000002b0: c856 093d cd0e 6d3c 852b d63c be67 253c
000002c0: 0173 bf3c 75ff bc3b 1162 883c e913 033d
000002d0: 32c7 353c 9bed 08ba abef 263d 6388 863c
000002e0: 523c c23c b9de 4cbb 75d0 38bc 62d9 c2bb
000002f0: 9f75 11bd 4457 3d3b 3f3b 073d 668c f73a
00000300: 25f5 9ebb 1ddc 3ebc f2a7 c5bb 2855 b23c
00000310: cdd2 b13c 146e da3c 27d4 7d3c d177 d03c
00000320: 50bc 653c 8005 283d cf3f bc3c 5a54 25bd
00000330: fca9 c23b 98fa c0bc 5d90 1ebd 7534 37bd
00000340: 5aa2 8cba 25b1 afbc 4fa6 b23c a39e 763c
00000350: dd17 2f3c 3836 5c3c 19ab 2abd 62b4 ecbb
00000360: 22fe 17bd 23e7 81bc cf73 02bd 1e18 e7bb
00000370: 08e3 df3c 02b9 2f3d 5a04 983c 182b 973c
00000380: 1a81 94bc b717 033d 7f84 b0bc 4652 f93c
00000390: 18e1 fc3c 7646 183d 6362 d53b fa09 dcbc
000003a0: d13c 19bd 20eb 723c bb37 563c 2a73 13bd
000003b0: 18bd 693c 4663 18bd 7171 c13c c649 613c
000003c0: a32d a7bc 1242 48bc 158e dfbc 92fa 8abd
000003d0: 265e 59bb f2cf ddbc 4ff3 853c 11a5 7b3c
000003e0: ca6b d03c 0c92 403d daa6 a0bb 90cf 703c
000003f0: e424 c2bc 72ba 813b a22d 16bd 39b4 4c3c

fc1.bias f4 [100]
0.112640336 0.07345066 0.11479369 0.018476835 -0.0061942274 -0.028099913 -0.11521039 0.02215483
0.07606105 0.05157781 -0.024283709 -0.06716157 -0.053768408 -0.023648385 -0.034681685 0.08692356
-0.04297136 0.039324038 0.16528112 0.058923207 0.17007956 0.058786895 0.038839404 0.0020589228
0.15542682 0.00923082 -0.07914851 -0.0026609243 0.09252755 0.022378564 0.02025208 0.15867545
-0.14751984 0.04809285 -0.03045588 -0.014939294 0.028942399 -0.012748752 -0.04950791 -0.016928406
-0.1093374 -0.0117761595 0.20356193 -0.03236193 0.046777368 0.03888299 -0.025312109 -0.108592495
0.12374266 0.014078338 -0.019904414 0.010005494 0.12105254 0.053015288 -0.05841417 -0.066525295
0.048840974 0.07005173 0.021438483 -0.12270808 0.10613508 0.09167972 -0.0067035276 -0.11355726
-0.0817281 0.08703512 0.06226891 0.16297244 0.079590864 0.069415815 0.1080101 -0.089810476
-0.04855407 -0.018017719 0.11575252 0.18240146 -0.009513667 0.1799705 0.0065315473 -0.0073132426
0.024028592 -0.029882371 0.019142745 0.03290754 0.19052148 0.04589509 -0.0035218392 -0.014330871
0.018715275 -0.0068699243 0.07202042 0.026750974 0.07531355 0.1254783 -0.02751956 -0.1256335
0.025351953 -0.13348155 -0.0019313241 0.05717252
00000000: faaf e63d 4d6d 963d f418 eb3d bb5c 973c
00000010: f2f8 cabb ca31 e6bc 6df3 ebbd 0c7e b53c
00000020: e5c5 9b3d 4143 533d a1ee c6bc 018c 89bd
00000030: 433c 5cbd 42ba c1bc 620e 0ebd fb04 b23d
00000040: bd02 30bd 3e12 213d 743f 293e 7659 713d
00000050: 5629 2e3e 87ca 703d 1116 1f3d feee 063b
00000060: 3528 1f3e de3c 173c 9d18 a2bd e762 2ebb
00000070: 167f bd3d 4053 b73c b1e7 a53c d17b 223e
00000080: 710f 17be 02fd 443d 9c7e f9bc f1c3 74bc
00000090: 9c18 ed3c 24e0 50bc cec8 4abd 71ad 8abc
000000a0: 49ec dfbd cbf0 40bc 8a72 503e f18d 04bd
000000b0: a099 3f3d c543 1f3d 575b cfbc be65 debd
000000c0: cb6c fd3d d4a8 663c 950e a3bc 15ee 233c
000000d0: 65ea f73d 8f26 593d b243 6fbd 6a3e 88bd
000000e0: 790d 483d 4877 8f3d c29f af3c 604e fbbd
000000f0: 595d d93d 94c2 bb3d 44a9 dbbb b590 e8bd
00000100: 1061 a7bd 783f b23d af0d 7f3d 3fe2 263e
00000110: 8900 a33d e129 8e3d 6634 dd3d 8eee b7bd
00000120: a2e0 46bd e599 93bc a80f ed3d 73c7 3a3e
00000130: 36df 1bbc 304a 383e 9706 d63b eda3 efbb
00000140: 9cd7 c43c e0cb f4bc 3fd1 9c3c 0fca 063d
00000150: 1018 433e 7dfc 3b3d a8ce 66bb 08cc 6abc
00000160: c750 993c 1a1d e1bb 717f 933d dc24 db3c
00000170: fe3d 9a3d 627d 003e b370 e1bc 11a6 00be
00000180: e6ae cf3c 63af 08be 7c24 fdba bb2d 6a3d

fc2.weight f4 [10, 100]
-0.34660742 -0.08422109 0.123403065 0.036159996 -0.118393645 -0.1162536 0.12819628 0.13415359
-0.13685569 -0.45684752 -0.18078837 -0.21517335 0.17740914 0.10829985 0.060493 0.32607675
-0.18393016 0.33909395 -0.20923933 0.51440537 -0.547448 -0.39189655 -0.103308804 0.004228598
0.13918227 0.17401803 0.38625824 0.013577984 0.093997516 -0.1923409 -0.041407213 -0.14250456
-0.16073173 0.054046188 -0.0642225 -0.06265662 -0.254653 0.066818304 -0.20045356 0.03068409
0.21185534 0.01646892 -0.26969248 0.20976272 -0.02605694 0.21941486 0.027647883 -0.11687563
0.4893114 0.020141346 -0.13431187 -0.19025125 0.5100679 -0.32469022 0.18482965 -0.008105957
0.07388124 0.1527817 -0.275087 0.19696362 -0.35597807 -0.42292506 0.08876868 0.09301716
0.101803176 -0.38117686 -0.26102316 -0.20253415 -0.053402077 -0.04869852 -0.146163 0.28313112
-0.29328817 -0.08235254 -0.10918512 0.1315182 0.18021494 -0.29791862 -0.031502955 0.0899714
-0.09275821 -0.05167313 0.022745403 0.2406829 0.38671616 -0.16205056 0.19690073 0.14172478
-0.056822553 -0.04813665 -0.1372393 -0.2122193 0.07739461 0.20347163 0.25477976 0.300404
-0.18453753 0.017181521 -0.1646121 -0.16525571 0.3135054 -0.17141093 -0.22813298 -0.043822587
-0.09243464 0.030080466 0.14738615 -0.062385768 -0.27196056 0.15755546 0.056805052 -0.3740824
-0.36452731 -0.089596994 -0.022695964 -0.16081578 -0.05831912 0.2970823 0.2944093 -0.25591105
0.22978424 0.26435265 -0.101084866 0.5431459 -0.18712644 -0.148366 -0.39485675 0.01178101
-0.06442204 0.046751052 -0.04355387 0.030147484 -0.17390439 -0.06778699 -0.012108099 -0.15971833
0.08640864 -0.1256726 0.087542444 -0.11732571 -0.19130313 0.025436562 -0.13100792 0.24465255
-0.1191371 -0.22759518 0.12373471 -0.2070669 -0.26542622 0.13723476 0.060466755 -0.069295526
-0.39262608 0.029167946 -0.2444667 -0.22648971 -0.05309517 0.21380103 0.18832022 0.0170422
0.38009652 0.4012455 0.05989527 0.064987466 -0.039128043 0.05016705 -0.4745574 0.457854
0.15948948 0.050719086 -0.06849033 -0.021191278 0.17736466 0.44663113 0.4108215 -0.52173835
0.05929086 -0.06838808 -0.081301875 -0.3978861 0.15607755 0.3586413 -0.091482274 -0.05358439
-0.02070587 -0.17946634 -0.021709248 -0.29761973 0.47388545 -0.107388124 0.066424645 -0.06554228
-0.31570446 0.5143175 -0.16234696 -0.25742617 -0.0007747983 -0.2423554 -0.0059232768 -0.19251959
-0.14933465 0.36150557 0.5482933 0.03170628 0.27821675 0.06054246 0.21500227 -0.1682368
0.3523641 0.34100327 0.037518714 -0.009202152 0.26926997 -0.24621697 -0.05718855 0.068493664
0.34980756 0.29939228 0.24147369 0.32061183 -0.31708634 0.3083922 0.0027487685 0.30349246
-0.2070717 -0.40301177 0.16369605 -0.0022834723 -0.012552344 0.03068632 0.1350582 0.45285937
0.1821632 -0.50614464 -0.028428445 -0.1175063 0.009683693 -0.08246649 -0.047395103 -0.32642025
0.5164421 0.026470613 -0.11883723 -0.12430534 0.05669927 -0.03639577 0.03597011 0.45618433
0.12762198 0.58882093 -0.12611526 0.07561242 -0.2953628 -0.26528335 0.038070984 0.13849576
00000000: 8776 b1be 1b7c acbd bfba fc3d 811c 143d
00000010: 5e78 f2bd 5e16 eebd e345 033e 8f5f 093e
00000020: e623 0cbe ebe7 e9be 9620 39be 6756 5cbe
00000030: beaa 353e 50cc dd3d 82c7 773d 88f3 a63e
00000040: 3058 3cbe b99d ad3e d642 56be 12b0 033f
00000050: 8d25 0cbf aaa6 c8be 9193 d3bd 0d90 8a3b
00000060: cc85 0e3e c831 323e a4c3 c53e 3176 5e3c
00000070: c581 c03d 03f5 44be 9c9a 29bd b7ec 11be
00000080: dc96 24be 895f 5d3d 1687 83bd 1d52 80bd
00000090: e161 82be 09d8 883d b343 4dbe 335d fb3c
000000a0: 9bf0 583e d4e9 863c 2215 8abe 0acc 563e
000000b0: 5d75 d5bc 4aae 603e d07d e23c 7e5c efbd
000000c0: 0687 fa3e 77ff a43c 0d89 09be 39d1 42be
000000d0: cf93 023f cc3d a6be fc43 3d3e d9ce 04bc
000000e0: 0c4f 973d ce72 1c3e 34d8 8cbe d5b0 493e
000000f0: c242 b6be a289 d8be 5bcc b53d c87f be3d
00000100: 2f7e d03d 9d29 c3be d4a4 85be 1d65 4fbe
00000110: 23bc 5abd 1978 47bd c1ab 15be 90f6 903e
00000120: de29 96be 73a8 a8bd 739c dfbd b5ac 063e
00000130: 448a 383e ca88 98be 3e09 01bd ed42 b83d
00000140: 04f8 bdbd 34a7 53bd 9154 ba3c 9475 763e
00000150: a9ff c53e 95f0 25be 58a0 493e 4d20 113e
00000160: c4be 68bd f02a 45bd 7688 0cbe 0450 59be
00000170: 1181 9e3d de5a 503e 7e72 823e 8ece 993e
00000180: 68f7 3cbe 43c0 8c3c 1390 28be cb38 29be
00000190: c883 a03e 5986 2fbe b19b 69be 507f 33bd
000001a0: 5f4e bdbd 4f6b f63c 65ec 163e 3888 7fbd
000001b0: 6a3e 8bbe 3856 213e 6aac 683d ba87 bfbe
000001c0: 53a3 babe a17e b7bd e3ec b9bc e4ac 24be
000001d0: 08e0 6ebd 2c1b 983e d1bc 963e c606 83be
000001e0: 8f4c 6b3e 3b59 873e 9505 cfbd 9c0b 0b3f
000001f0: 139e 3fbe 42ed 17be aa2a cabe 2305 413c
00000200: b4ef 83bd 087e 3f3d 8b65 32bd dbf7 f63c
00000210: fe13 32be e8d3 8abd 0c61 46bc 348d 23be
00000220: 03f7 b03d 51b0 00be 7449 b33d 7648 f0bd
00000230: f8e4 43be 5660 d03c f126 06be 3386 7a3e
00000240: 27fe f3bd b60e 69be a068 fd3d 5809 54be
00000250: f2e5 87be 4587 0c3e fdab 773d d0ea 8dbd
00000260: 4906 c9be 9ef1 ee3c 7b55 7abe ebec 67be
00000270: 527a 59bd a8ee 5a3e 04d7 403e 159c 8b3c
00000280: 039c c23e 0d70 cd3e be54 753d 2618 853d
00000290: ba44 20bd f77b 4d3d 30f9 f2be d76b ea3e
000002a0: 3651 233e d1be 4f3d a844 8cbd 5599 adbc
000002b0: 159f 353e d6ac e43e 3257 d23e a590 05bf
000002c0: f9da 723d 0d0f 8cbd 9981 a6bd bab7 cbbe
000002d0: cbd2 1f3e d59f b73e 0f5b bbbd 4e7b 5bbd
000002e0: 5b9f a9bc 06c6 37be 98d7 b1bc 9d61 98be
000002f0: 1da1 f23e 4eee dbbd a509 883d 083b 86bd
00000300: 04a4 a1be 50aa 033f 483e 26be 5dcd 83be
00000310: d51b 4bba 042c 78be 0c18 c2bb db23 45be
00000320: 2feb 18be 4217 b93e f35c 0c3f 72de 013d
00000330: 6d72 8e3e 5ffb 773d 8e29 5c3e 4546 2cbe
00000340: 1169 b43e fb97 ae3e 39ad 193d 9fc4 16bc
00000350: c1dd 893e 4d20 7cbe 8a3e 6abd 6846 8c3d
00000360: fa19 b33e f249 993e e144 773e 3c27 a43e
00000370: 2459 a2be 95e5 9d3e af24 343b 5d63 9b3e
00000380: 9b0a 54be 8f57 cebe f09f 273e 4fa6 15bb
00000390: 59a8 4dbc e161 fb3c b24c 0a3e 2fdd e73e
000003a0: fd88 3a3e b292 01bf c5e2 e8bc 25a7 f0bd
000003b0: 5aa8 1e3c 31e4 a8bd 5e21 42bd 8e20 a7be
000003c0: 8d35 043f e6d8 d83c ef60 f3bd cc93 febd
000003d0: 7e3d 683d bb13 15bd 6555 133d fe90 e93e
000003e0: 56af 023e f8bc 163f 5c24 01be afda 9a3d
000003f0: cb39 97be 38d3 87be 52f0 1b3d d5d1 0d3e

fc2.bias f4 [10]
-0.27296886 0.1506066 -0.096762285 -0.14530726 0.057862993 0.3463075 -0.062166102 0.09845102
-0.37960592 -0.008296411
00000000: 93c2 8bbe 9e38 1a3e 4e2b c6bd 6dcb 14be
00000010: bf01 6d3d 374f b13e e2a1 7ebd b0a0 c93d
00000020: b55b c2be abed 07bc
